pretrained_model.pt (torch, 421137 bytes, 6 tensors)

fc1.weight f4 [256, 144]
0	0xbbdc10d5	-0.0067158737
1	0xbc93a414	-0.018022574
2	0x3d8f6498	0.070016086
3	0xbe4d574f	-0.20052837
4	0x3c857847	0.016292704
5	0x3da5ccee	0.08095728
6	0xbc95a24b	-0.018265864
7	0x3d48f8b4	0.049065307
8	0x3a3b9ea4	0.0007157123
9	0xbcda6d7d	-0.026663536
10	0xbd556a7a	-0.052103497
11	0x3dc4211f	0.0957663
12	0xbd8f9a95	-0.07011906
13	0xbc9e775f	-0.01934403
14	0x3c8b3a7a	0.016995657
15	0xbd69d465	-0.05708732
16	0x3d80c1fd	0.06287
17	0xbd6717e5	-0.056419272
18	0x3ce8c461	0.028413953
19	0xbcdd813b	-0.027039161
20	0xbda3a4b8	-0.07990402
21	0xbd617d50	-0.055051148
22	0x3d585a43	0.052820455
23	0x3dcfa63f	0.10139131
24	0xbd74e4db	-0.059788566
25	0x3b258449	0.002525585
26	0xbd2b9fb9	-0.04190037
27	0x3ca5efa9	0.02025588
28	0x3dd291b3	0.10281696
29	0x3c7fcea0	0.015613228
30	0x3bf2e4ab	0.0074125133
31	0x3d3fba0e	0.046808295
32	0xbb460ac6	-0.0030218824
33	0xbe02edf8	-0.1278609
34	0x3da204da	0.079110816
35	0x3d7128d3	0.058876824
36	0xbdb5d325	-0.08878163
37	0xbb0c69a1	-0.0021425264
38	0xbd692e4c	-0.056928918
39	0xbdbd48da	-0.09242411
40	0xbdbdad4e	-0.09261571
41	0xbd851d1e	-0.06499694
42	0x3d4ab327	0.04948726
43	0x3d776d96	0.060407244
44	0xbd22b79d	-0.03972589
45	0xbc00a3a0	-0.007851511
46	0x3d962e36	0.07333033
47	0xbe160e3c	-0.14653867
48	0x39642000	0.00021755695
49	0x3d2ca2aa	0.042147316
50	0x3d5bf365	0.053698916
51	0x3d2ace70	0.04170078
52	0xbde10dcc	-0.1098896
53	0xbc589bee	-0.01322077
54	0xbd0ed65b	-0.034872394
55	0xbe218a07	-0.1577531
56	0xbd99d478	-0.07511228
57	0xbdb79bef	-0.08965289
58	0x3d61bbc2	0.0551107
59	0xbcb54a57	-0.022130175
60	0xbc79229d	-0.015206006
61	0xbc6d7219	-0.014492535
62	0x3e0237a2	0.12716535
63	0x3e358bb3	0.17729072
64	0xbc38689a	-0.011255408
65	0xbde56e74	-0.11202708
66	0xbcd5faf4	-0.02612064
67	0x3d6ea563	0.058263194
68	0x3e085fd9	0.13317813
69	0x3c2f8e56	0.010715088
70	0x3e0221d4	0.12708217
71	0x3cf66393	0.030076778
72	0xbc8dda96	-0.017316144
73	0xbd6e6ec4	-0.058211103
74	0x3dc37c95	0.095452465
75	0xbd947f16	-0.07250802
76	0xbd42b179	-0.047532532
77	0xbd824365	-0.06360511
78	0xbadb9aab	-0.0016754469
79	0x3dd4250c	0.10358629
80	0xbcfbfdc8	-0.03076066
81	0xbda6b3cf	-0.081397645
82	0xbd04e522	-0.03244508
83	0x3c875ffc	0.016525261
84	0x3db5e276	0.088810846
85	0x3ceb9f06	0.028762352
86	0xbca3241f	-0.019914685
87	0xbd1473d7	-0.036243286
88	0x3e13bb62	0.1442695
89	0x3ca48d9d	0.020087058
90	0xbd7e413a	-0.062073924
91	0x3df29f15	0.11846749
92	0xbdc121e8	-0.09430295
93	0x3d19fbd6	0.037593685
94	0x3d5c11f9	0.053728078
95	0x3ceedcbb	0.029157987
96	0x3d008590	0.031377375
97	0x3db31668	0.08744508
98	0xbbdbeaeb	-0.006711354
99	0x3da8c00e	0.082397565
100	0x3dbf0f06	0.09329037
101	0x3da5f68c	0.08103666
102	0x3c32ad36	0.0109055545
103	0xbd099141	-0.03358579
104	0x3d535cfa	0.05160234
105	0x3d796a25	0.060892243
106	0xbcc91a7f	-0.024548767
107	0xbb0f1550	-0.0021832772
108	0x3c9a9921	0.018871846
109	0xbd55bdf8	-0.05218312
110	0xbc94308e	-0.018089559
111	0x3d766aa0	0.06016028
112	0x3cfe1d91	0.031019958
113	0x3da5452a	0.080698326
114	0x3b90128d	0.0043967427
115	0xbcd3a9d9	-0.025837826
116	0xbd7cc96d	-0.061715532
117	0xbcc87ee6	-0.024474572
118	0xbe05ba58	-0.13059366
119	0x3ddd58c9	0.1080795
120	0xbd69b55b	-0.05705772
121	0xbc26fa53	-0.010191518
122	0xbc160a2a	-0.009157697
123	0x3d744ba5	0.059642453
124	0xbd5d22f7	-0.053988423
125	0xbd8490d4	-0.06472936
126	0xbd776a00	-0.060403824
127	0x3bba94f9	0.0056940285
128	0xbcdccda1	-0.02695352
129	0x3dc58245	0.096439876
130	0xbe738579	-0.23781385
131	0x3d495f77	0.049163308
132	0x3c99bfcd	0.018768216
133	0x3dac4f71	0.0841359
134	0x3d82611d	0.06366179
135	0xbd45937f	-0.048236366
136	0xbda69f2b	-0.08135828
137	0xbd019150	-0.03163272
138	0x3d7fa87b	0.062416535
139	0x3d7b16e6	0.061301135
140	0x3dacf062	0.08444287
141	0x3a487664	0.0007647036
142	0xbd9ec263	-0.0775192
143	0x3bedb63f	0.0072543914
144	0x3aea846a	0.0017892246
145	0xbd5a7adf	-0.053339835
146	0x3d691c5c	0.05691181
147	0x3d32ca56	0.043649994
148	0x3da86ca2	0.08223845
149	0x3bf426ff	0.0074509378
150	0xbd9673b0	-0.073462844
151	0xbcc20a7b	-0.023686638
152	0xbd8b2277	-0.06793683
153	0x3d19a946	0.037514947
154	0x3e0da30c	0.13831729
155	0xbd20c1d6	-0.039247356
156	0x3d17561e	0.036947362
157	0xbceb840a	-0.028749485
158	0xbd9668ee	-0.073442325
159	0x3d9a562b	0.075359665
160	0x3cd0c96b	0.025486669
161	0xbc52fc08	-0.012877472
162	0xbd292606	-0.041296028
163	0xbb0c2938	-0.0021386873
164	0xbdcc0125	-0.09961156
165	0xbca7b326	-0.020471167
166	0xbd7313c1	-0.05934501
167	0x3d40ffb5	0.04711886
168	0x3d61dcf0	0.055142343
169	0xbceedf0d	-0.029159093
170	0xbc2836df	-0.010266989
171	0x3d42ebc0	0.04758811
172	0x3da40cb6	0.08010237
173	0xbb4da8c1	-0.0031381103
174	0x3cee2b68	0.029073432
175	0xbd929649	-0.07157571
176	0xbcc30c5d	-0.023809606
177	0x3d337d5e	0.04382073
178	0x3cfe83be	0.031068679
179	0xbd69c566	-0.05707302
180	0xbbe53ab7	-0.0069955247
181	0xbcca6f48	-0.024711266
182	0x3d74503c	0.05964683
183	0x3e14445a	0.14479199
184	0x3d07fd94	0.033200815
185	0x3d520f73	0.051284265
186	0x3d26d20e	0.040727668
187	0xbd811fe8	-0.06304914
188	0x3cdd35cb	0.02700319
189	0x3d9b68ae	0.075883254
190	0xbc37c4dd	-0.011216369
191	0xbd80c12f	-0.06286847
192	0xbca5149b	-0.020151427
193	0x3d9c21ad	0.07623611
194	0xbd36291e	-0.044472806
195	0xbdb1df1e	-0.08685134
196	0xbd1882fe	-0.0372343
197	0x3c511f10	0.0127637535
198	0xbd89f3bc	-0.06735942
199	0xbd154e1c	-0.036451444
200	0x3df464c6	0.119332835
201	0x3d91123b	0.07083555
202	0xbd8545a2	-0.06507422
203	0x3c1a31d2	0.009411292
204	0xbdc7663b	-0.09736296
205	0x3e0b4e22	0.13604024
206	0xbd2b1cf6	-0.041775666
207	0x3d5a61aa	0.053315796
208	0x3ca0c3f8	0.019624695
209	0x3de3535b	0.11099883
210	0x3cee5980	0.029095411
211	0xbdc2aea9	-0.0950597
212	0x3d5d7662	0.054067977
213	0x3da63d74	0.0811719
214	0xbd3a06b2	-0.04541654
215	0xbd445fcd	-0.047942925
216	0xbc0bf1cb	-0.008541535
217	0x3d8ec1c7	0.06970554
218	0x3cd504a8	0.026003197
219	0x3dd974d7	0.106179886
220	0xbe01eaf6	-0.12687287
221	0x3ad91276	0.0016561288
222	0xbda199a6	-0.07890634
223	0x3d940b0d	0.0722867
224	0xbd4ba2fd	-0.049715985
225	0xbd838047	-0.06420951
226	0x3ded496c	0.1158627
227	0xbc9d6a88	-0.019215837
228	0x3d34b4eb	0.04411785
229	0xbd658e51	-0.056043927
230	0x3d0c4f90	0.034255564
231	0xbbe88b5d	-0.0070966915
232	0x3e35e31c	0.17762417
233	0xbbde88a3	-0.0067911907
234	0x3d298b0f	0.041392382
235	0x3dc9244d	0.09821377
236	0xbd1ebdf4	-0.038755372
237	0xbd946922	-0.07246615
238	0xbd06f344	-0.03294684
239	0xbdc8e794	-0.09809795
240	0xbcb1f2cb	-0.021722218
241	0xbd49acf6	-0.049237214
242	0xbd7f54c3	-0.062336694
243	0x3c66599d	0.014059451
244	0x3d346383	0.044040214
245	0xbd6b53f6	-0.05745312
246	0x3d645168	0.055741698
247	0x3d6b32bf	0.057421442
248	0xbc9ea6bc	-0.019366615
249	0x3d837fa7	0.06420832
250	0x3d5ebcf9	0.054379437
251	0xbb715aa1	-0.00368277
252	0x3d7800fd	0.060547817
253	0xbd656144	-0.056000963
254	0xbd559460	-0.052143455
255	0xbe1d5789	-0.15365423

fc1.bias f4 [256]
0	0xbc8a53b6	-0.01688562
1	0x398fb69f	0.0002741115
2	0xbd32cce5	-0.043652434
3	0x3dadf045	0.084930934
4	0xbce1ab07	-0.027547373
5	0x3c799351	0.015232877
6	0x3d955b48	0.07292801
7	0x3b0e62b5	0.0021726314
8	0xbd469f9e	-0.048492067
9	0x3d9a8493	0.07544818
10	0xbd08c86f	-0.033394273
11	0xbcf74d0b	-0.030188104
12	0xbd64fe66	-0.055906676
13	0xbd59e273	-0.053194474
14	0xbd4bd84d	-0.049766827
15	0xbcf24d03	-0.029577738
16	0x3d88bf90	0.06677163
17	0x3d4954f3	0.04915328
18	0x3c802054	0.015640415
19	0x3d0023be	0.031284086
20	0xbd2d1ec9	-0.042265687
21	0x3cc0d211	0.023537667
22	0xbd83c722	-0.06434466
23	0x3da8b989	0.08238513
24	0x3dbf4649	0.09339578
25	0x3d87f015	0.06637589
26	0xbd805a4d	-0.062672235
27	0x3cf4def4	0.029891469
28	0xbd90d071	-0.07071007
29	0xbd4f18ea	-0.05056087
30	0x3cdf7a0e	0.02727988
31	0x3d5aba59	0.05340037
32	0xba94ea5e	-0.0011361351
33	0x3c23e2f1	0.0100028375
34	0xbb5b047e	-0.0033419426
35	0xbcf4ae80	-0.029868364
36	0xbcf2bcb9	-0.029631006
37	0xbd8c1fe7	-0.068420224
38	0x3d13fd0b	0.036129992
39	0x3d380bca	0.044933118
40	0x3acdc933	0.0015700221
41	0xbca98c3c	-0.020696752
42	0xbced69ca	-0.028981108
43	0xbd64e6ef	-0.055884298
44	0x3ce6ecb2	0.028189037
45	0xbd563cd1	-0.052304093
46	0x3da12379	0.07868094
47	0x3c6ac181	0.0143283615
48	0x3da2cbe6	0.07949047
49	0xbd042a8b	-0.032267135
50	0x3dbb93aa	0.09159024
51	0xbcdd3bcb	-0.02700605
52	0xbd17f6eb	-0.037100714
53	0xbd0a3355	-0.03374036
54	0x3d630296	0.055422388
55	0xbc2c6e4d	-0.010524345
56	0xbd91e89e	-0.07124446
57	0x3d6be84c	0.057594582
58	0xbbf9d6e3	-0.0076244934
59	0x3d120d85	0.035657424
60	0x3d25993b	0.040429335
61	0x3cf0bc64	0.029386707
62	0x3b66d5b1	0.0035222585
63	0xbd0f5937	-0.03499719
64	0xbd72c62f	-0.059271034
65	0x3c31e85d	0.010858622
66	0xbbca946f	-0.0061822454
67	0xbab18a40	-0.001354523
68	0xbcb3a477	-0.021929009
69	0xbd5d9e71	-0.05410618
70	0x3d096b6d	0.033549715
71	0x3d305004	0.04304506
72	0xbd133f6d	-0.03594916
73	0x3d4c6709	0.04990295
74	0xbacfa967	-0.0015843333
75	0x3db8ea22	0.09029032
76	0x3c8d4e84	0.017249353
77	0xbd284163	-0.041077983
78	0x3d1a7a83	0.037714493
79	0x3d9d1072	0.07669152
80	0x3e054e46	0.1301814
81	0xbbfc387d	-0.0076971636
82	0x3ca8b5a6	0.02059443
83	0x3d5cc3dc	0.053897724
84	0x3cbd028b	0.023072502
85	0x3cd55a9b	0.02604418
86	0x3d0b57f7	0.034019437
87	0xbd287fde	-0.04113757
88	0x3da2aaa5	0.07942704
89	0xbbb435cf	-0.0054995785
90	0xbccff2d3	-0.025384342
91	0xbd530bef	-0.051525053
92	0x3cb40f65	0.021979997
93	0xbd1441e4	-0.03619565
94	0xbd2bf707	-0.04198363
95	0x3d192ce2	0.03739632
96	0xbc79e416	-0.015252134
97	0x3db70adf	0.0893762
98	0xbd8ead41	-0.06966639
99	0xbd0fcaf4	-0.03510566
100	0x3cb4bc28	0.022062376
101	0x3d7d704b	0.06187467
102	0x3dafd07e	0.085846886
103	0x3d956f01	0.07296563
104	0x3d25c5d8	0.04047188
105	0x3cb3ac10	0.021932632
106	0xbc7ab622	-0.015302213
107	0x3da37be2	0.07982613
108	0x3db4dbaa	0.0883096
109	0xbc834e2e	-0.01602849
110	0xba517d71	-0.00079914095
111	0x3d33c25c	0.043886527
112	0x3c96deea	0.01841684
113	0x3cbee1c5	0.023301015
114	0xbcb97235	-0.022637466
115	0xbd867668	-0.06565553
116	0x3c4e70ed	0.012600166
117	0x3d81a4b7	0.06330245
118	0xbb44f55d	-0.0030053474
119	0xbd0ff5ec	-0.03514664
120	0xbc864ce6	-0.01639409
121	0x3db5a862	0.08870007
122	0x3d641dc0	0.055692434
123	0x3a3d2e38	0.0007216665
124	0x3d8e386d	0.06944356
125	0xbcca0354	-0.02465979
126	0x3b83321c	0.0040037762
127	0xbbb444fc	-0.0055013876
128	0xbd60cfad	-0.054885555
129	0xbced1024	-0.02893836
130	0xbd301f61	-0.042998675
131	0xbd218ff1	-0.039443914
132	0x3d76c0a6	0.060242318
133	0x3c9d06c0	0.019168258
134	0x3dad8b84	0.08473876
135	0x3bcaab94	0.0061850045
136	0xbca1c94a	-0.019749302
137	0xbc004e2e	-0.0078311395
138	0x3d94e372	0.07269944
139	0x3d37af12	0.044844694
140	0x3ac5b284	0.0015083109
141	0x3d4cfbb6	0.050044738
142	0x3d9cc582	0.07654859
143	0xba9287cd	-0.0011179388
144	0xbd059b2b	-0.032618683
145	0xbca6fcb5	-0.020384172
146	0xbc2542d2	-0.010086732
147	0x3d80ab79	0.06282706
148	0x3d207d72	0.039182134
149	0xbcaca40e	-0.021074321
150	0xbc2c0dfd	-0.010501382
151	0xbcfb8f9c	-0.030708127
152	0xbbbe76f8	-0.005812522
153	0xbcd8b14f	-0.026451735
154	0x3ccdd06e	0.025123801
155	0xbd0c516e	-0.034257345
156	0x3c7e13c3	0.015507641
157	0x3db86132	0.090029135
158	0x3c9d3c34	0.019193746
159	0x3d7478c3	0.05968548
160	0x3d1eebc7	0.038799074
161	0x3d8d37a5	0.06895379
162	0x3da85a2c	0.08220324
163	0xbcb6bb2f	-0.022306053
164	0x3c5be49b	0.013421203
165	0xbd92bb49	-0.07164628
166	0x3d39db1b	0.04537497
167	0x3d84720b	0.064670645
168	0x3d78d878	0.060753316
169	0x3da6962d	0.081341125
170	0xbcc47bf7	-0.023984892
171	0x3d91400d	0.07092295
172	0xbcbfda15	-0.02341942
173	0x3d2ad784	0.041709438
174	0x3d2d40b6	0.04229804
175	0xbc13c977	-0.009020201
176	0x3db87946	0.09007506
177	0x3df3b996	0.11900632
178	0x3c57a7e0	0.013162583
179	0x3bf409d2	0.0074474597
180	0x3d2a59c2	0.041589506
181	0x3c574cfd	0.013140914
182	0x3d592149	0.05301026
183	0x3d504112	0.050843306
184	0xbbb4a4d3	-0.0055128126
185	0x3d8ae7b8	0.06782478
186	0x3e017722	0.12643102
187	0xbdaf90a4	-0.0857251
188	0xbb99c6a0	-0.0046928674
189	0x3d78b52e	0.06071966
190	0x3de04ea7	0.10952502
191	0xbd6d2e1c	-0.0579053
192	0xbcb79069	-0.022407727
193	0x3dc52f40	0.09628153
194	0x3db2db87	0.08733278
195	0xbc25aef3	-0.010112512
196	0xbd6da69a	-0.05802021
197	0xbd075456	-0.033039413
198	0xbd12a144	-0.035798326
199	0xbd33a2cf	-0.04385644
200	0x3cd155c5	0.025553593
201	0xbd41520f	-0.047197398
202	0x3d0f3512	0.03496272
203	0xbd330b72	-0.043712087
204	0x3b0be535	0.0021346335
205	0xbc9ae4b4	-0.018907882
206	0xbd8b839d	-0.068122126
207	0x3d6cb9af	0.05779427
208	0x3da9fe36	0.0830044
209	0x3d4fd928	0.050744206
210	0x3d798d10	0.060925543
211	0x3d19a4f5	0.03751083
212	0xbd099234	-0.033586696
213	0xbcded528	-0.02720125
214	0xbd0cedd0	-0.034406483
215	0x3dab29e8	0.08357602
216	0xbb15a6d1	-0.0022835026
217	0x3d9487e4	0.072524816
218	0xbc547df2	-0.012969481
219	0x3c079b30	0.008276746
220	0xbc2b7013	-0.010463732
221	0x3bb419ab	0.005496224
222	0x3d8a04fe	0.067392334
223	0xbced96f8	-0.029002652
224	0x3cd2abd5	0.025716702
225	0x3d867208	0.065647185
226	0x3d2b90b8	0.04188606
227	0x3d830d77	0.063990526
228	0x3d63eafb	0.055644017
229	0xbc797ab3	-0.015227008
230	0xbbbd3c80	-0.0057750344
231	0x3d118ae8	0.035532862
232	0x3ddaa099	0.10675163
233	0x3c4980ef	0.012298807
234	0xbca5142a	-0.020151217
235	0xbc7e05c4	-0.015504304
236	0x38ecf8f6	0.000112997295
237	0x3ce43ab3	0.027860021
238	0x3d2ccc0c	0.04218678
239	0xbcf0f437	-0.029413326
240	0x3d7ee857	0.062233295
241	0x3d1f4060	0.038879752
242	0xbd7b0fea	-0.061294474
243	0x3d3affa0	0.04565394
244	0xbb0eb470	-0.002177503
245	0x3d0c83f3	0.034305524
246	0x3d117abe	0.035517447
247	0x3d764fda	0.060134746
248	0x3daf43cf	0.08557855
249	0x3dad7e3f	0.08471345
250	0xbd400a11	-0.0468846
251	0xbc1518e6	-0.0091001745
252	0x3b893163	0.0041867956
253	0x3d449bc0	0.048000097
254	0x3d86ef64	0.06588629
255	0xbc35e845	-0.011102741

fc2.weight f4 [256, 256]
0	0x3a8cd633	0.0010744989
1	0x3db8aab5	0.09016935
2	0xbda8b7db	-0.08238193
3	0xbdb47c3b	-0.088127576
4	0xbe1818af	-0.14853166
5	0xbca006f3	-0.019534564
6	0xbde1005c	-0.10986397
7	0x3d08de73	0.03341527
8	0xbc8b7123	-0.017021721
9	0x3dd8bf7f	0.105834
10	0x3d6a0c27	0.057140496
11	0xbdb85861	-0.09001232
12	0x3db4d52c	0.08829722
13	0xbc759205	-0.014988427
14	0x3de8e422	0.11371638
15	0xbd3471d5	-0.04405387
16	0xbd28813a	-0.041138865
17	0x3d624b69	0.055247698
18	0xbd33938e	-0.04384189
19	0xbb9acce5	-0.0047241324
20	0x3ddb93fb	0.107215844
21	0x3e51eca4	0.20500427
22	0x3d093b80	0.03350401
23	0x3caa4b7b	0.020787945
24	0x3d75882e	0.059944324
25	0x3d6fa91d	0.05851089
26	0xbcb0c5dc	-0.021578722
27	0xbd56649d	-0.052342046
28	0xbdd2a9bd	-0.10286281
29	0x3da5a6b8	0.0808844
30	0xbe1c1a18	-0.15244329
31	0x3d841c57	0.06450718
32	0x3d187d3c	0.037228808
33	0x3c2917b7	0.010320595
34	0x3de88dbc	0.11355159
35	0xbd4469d2	-0.04795248
36	0x3e13c5c1	0.14430906
37	0xbc0c39d7	-0.008558712
38	0xbe44bad7	-0.19211899
39	0x3d9b2ec2	0.07577278
40	0xbe3621b7	-0.17786299
41	0xbdb652d6	-0.089025185
42	0xbd9d9d8d	-0.07696066
43	0xbe1575e8	-0.14595759
44	0x3e266efb	0.16253273
45	0xbe02671b	-0.12734644
46	0x3dbd242e	0.09235416
47	0xbd1c05d7	-0.038091507
48	0xbe0c5f1b	-0.13708155
49	0x3db445b7	0.088023596
50	0x3d110232	0.035402484
51	0x3d1274a5	0.035755772
52	0xbe0bebf3	-0.13664226
53	0x3dbcf065	0.09225539
54	0x3da715ec	0.08158478
55	0x3d1981e5	0.037477393
56	0xbe081c50	-0.1329205
57	0xbe32a8f1	-0.17447259
58	0x3de98d57	0.114039116
59	0xbdd3edc0	-0.103480816
60	0x3d41690e	0.04721933
61	0x3d09d350	0.03364879
62	0x3d245fea	0.040130533
63	0xbe08e514	-0.13368636
64	0xbda74444	-0.081673175
65	0x3d634e79	0.05549476
66	0xbdaaa4c8	-0.08332211
67	0x3c8e9f9a	0.017410088
68	0x3d4b2190	0.049592555
69	0x3b823cad	0.0039745183
70	0x3d6816e9	0.056662474
71	0xbaf0bafa	-0.001836627
72	0x3df67960	0.12034869
73	0xbc52eab0	-0.012873337
74	0x3cb72ad1	0.022359284
75	0xbdaf38cf	-0.08555757
76	0xbd34a7c1	-0.044105295
77	0x3d8e94f0	0.06962001
78	0x3dae2df5	0.08504859
79	0x3d8999f5	0.06718818
80	0x3d7a5e69	0.061125193
81	0x3d29f2fa	0.041491486
82	0xbca6735a	-0.020318676
83	0x3b76e151	0.003767092
84	0x3dce1421	0.10062433
85	0xbcfc3202	-0.030785564
86	0xbdf6759d	-0.12034152
87	0x3d020d2e	0.03175085
88	0xbdda4351	-0.10657371
89	0x3dda8b82	0.1067114
90	0x3c4b08f5	0.012392272
91	0xbdf3bab2	-0.11900844
92	0xbd30f10e	-0.043198638
93	0x3d8854ec	0.066568226
94	0x3dd48bf2	0.10378255
95	0xbdd57563	-0.1042278
96	0xbe062f69	-0.13104023
97	0x3da8aa4c	0.082356066
98	0x3b10b204	0.0022078762
99	0xbdd0c750	-0.10194266
100	0x3d559f31	0.05215377
101	0xbd47c87a	-0.048775174
102	0x3c977b02	0.018491272
103	0xbde4a999	-0.11165161
104	0x3dc19c1c	0.094536036
105	0xbd6fbcae	-0.05852955
106	0x3da4bee9	0.08044226
107	0x3d976ec9	0.073941775
108	0x3dde2a9c	0.10847971
109	0xbd2dbd51	-0.042416874
110	0xbd702583	-0.058629524
111	0x3debfa81	0.11522389
112	0x3d91a538	0.07111591
113	0x3d176590	0.036962092
114	0xbdaa8ec9	-0.08328015
115	0x3e198e61	0.1499572
116	0xba4f62d7	-0.00079111516
117	0x3deb838d	0.11499701
118	0x3d0255dc	0.031820163
119	0x3a8b064c	0.0010606735
120	0xbd796c33	-0.060894202
121	0xbe76ffe8	-0.24121058
122	0x3d94884c	0.07252559
123	0x3d9c8b64	0.07643774
124	0xbdbc70bc	-0.0920119
125	0x3b4bef95	0.0031118144
126	0x3cfc97e6	0.03083415
127	0xbd896fa6	-0.067107484
128	0xbdd1fb8f	-0.10253059
129	0xbe0753f1	-0.13215615
130	0x3b505f13	0.003179495
131	0x3d47345a	0.04863391
132	0xbd719b7a	-0.058986165
133	0x3d63205f	0.055450793
134	0x3d96b106	0.07357983
135	0xbc950bc7	-0.018194092
136	0xbe1b1b1a	-0.15147057
137	0x3cb2b4ef	0.021814791
138	0x3dbc8ae3	0.09206178
139	0x3b6a8585	0.003578515
140	0x3cf6d178	0.03012918
141	0xbc1d7df3	-0.009612548
142	0xbc790edd	-0.015201298
143	0xbdc05527	-0.093912415
144	0xbd7c5237	-0.061601844
145	0x3dd16a61	0.10225368
146	0xbd1a002e	-0.037597828
147	0x3c835deb	0.016035995
148	0xbd20f2e8	-0.039294153
149	0xbc78e787	-0.015191919
150	0x3d815b96	0.06316297
151	0x3d8b8d22	0.06814028
152	0x3c1999cc	0.009375047
153	0xbd839edf	-0.06426787
154	0xbd9c915e	-0.07644914
155	0xbdaba2e7	-0.083806805
156	0x3c162d8a	0.009166131
157	0xbc8556cf	-0.016276745
158	0x3dbf0636	0.093273565
159	0x3dd20bcb	0.102561556
160	0xbced6215	-0.028977433
161	0xbda3c133	-0.07995834
162	0x3dc7c951	0.09755195
163	0x3e048714	0.12942153
164	0xbcd6c42e	-0.026216593
165	0x3e069140	0.13141346
166	0xbdd18adb	-0.10231563
167	0x3d960708	0.0732556
168	0xbdaf654e	-0.08564244
169	0xbcf70cad	-0.030157411
170	0xbdf78ad4	-0.12087026
171	0x3d0a82f5	0.033816297
172	0xbe0af0a2	-0.13568357
173	0xbe522ecd	-0.20525666
174	0x3cce400b	0.025177022
175	0xbe16ad92	-0.1471465
176	0x3ddd3268	0.1080063
177	0xbcfff52f	-0.031244842
178	0xbe084d06	-0.13310632
179	0x3bdd9986	0.006762686
180	0x3d82ff30	0.063963294
181	0x3dd10f97	0.10208052
182	0x3d12997d	0.03579091
183	0xbd1903c2	-0.0373571
184	0xbdafd00d	-0.085846044
185	0xbb95df19	-0.0045737145
186	0x3d997b85	0.074942626
187	0x3d66b959	0.056329105
188	0xbc5cdfcc	-0.013481092
189	0x3d8ecc0d	0.06972513
190	0x3bb27199	0.005445671
191	0xbe05fea3	-0.13085417
192	0x3a0ce798	0.00053750863
193	0x3db82fc0	0.089934826
194	0x3d2dc4c0	0.042423964
195	0x3e04dedd	0.1297564
196	0xbca3cdd2	-0.019995604
197	0xbe11f7ff	-0.14254759
198	0x3c7dfabd	0.015501675
199	0x3d13197e	0.035912983
200	0x3d7f6f4d	0.062362004
201	0x3e1a58d3	0.15072946
202	0x3c88aa5c	0.016682796
203	0xbb98d16a	-0.004663636
204	0x3dbc8cc4	0.092065364
205	0x3c65042c	0.013978045
206	0xbc9232cb	-0.017846486
207	0xbcf02ddb	-0.02931874
208	0x3a4a8669	0.0007725717
209	0x3d56febc	0.052489027
210	0x3dc1314a	0.09433229
211	0xbd85b6be	-0.06528996
212	0xbbd67327	-0.006544489
213	0x3dd0aeea	0.10189612
214	0xbd600715	-0.054694254
215	0x3d7123f2	0.05887217
216	0xbce2f4e0	-0.027704656
217	0x3cb7e1d5	0.022446552
218	0x3de8ff2d	0.11376796
219	0x3d4748be	0.048653357
220	0x3d551e3a	0.05203078
221	0xba86fcb2	-0.0010298698
222	0x3bb37880	0.005477011
223	0xbd4bd6d6	-0.04976543
224	0xbd80d289	-0.062901564
225	0xbe39d980	-0.18149376
226	0x3df2af8d	0.1184989
227	0x3d96099c	0.073260516
228	0xbe5ec28b	-0.217539
229	0xbe311882	-0.17294505
230	0xbdd08288	-0.10181147
231	0xbcb3767e	-0.021907087
232	0xbd86e534	-0.06586686
233	0x3d47389f	0.048637982
234	0xbdc1f12f	-0.0946983
235	0xbe53690b	-0.2064554
236	0x3e23d26a	0.15998235
237	0xbde17653	-0.11008897
238	0xbbf903e9	-0.007599343
239	0xbc97ea96	-0.018544476
240	0x3d3c65e0	0.045995593
241	0xbd59144d	-0.052997876
242	0xbdc81fcf	-0.09771692
243	0x3d361086	0.04444935
244	0xbd7d47b5	-0.061835963
245	0x3d1692e7	0.03676119
246	0x3d33fd33	0.04394264
247	0xbdefd116	-0.11709802
248	0xbcc90ea2	-0.02454311
249	0x3d4318e8	0.047631174
250	0xbd8034c1	-0.06260062
251	0x3d92d746	0.071699664
252	0x3d00cddb	0.03144632
253	0xbbb615cd	-0.005556798
254	0xbcf6e923	-0.030140465
255	0x3d32469a	0.043524362

fc2.bias f4 [256]
0	0x3d1e8b32	0.038706966
1	0xbc39e20b	-0.011345397
2	0x3d4b7fd6	0.04968246
3	0xbcb83675	-0.022486905
4	0x3d8249dc	0.06361744
5	0x3c424e55	0.011859496
6	0xbc7d30c7	-0.015453524
7	0xbd0a328e	-0.03373962
8	0x3d8cea59	0.06880636
9	0x3d802da4	0.06258705
10	0x3c1b73dc	0.009488072
11	0xbc064fd2	-0.008197742
12	0xbd362573	-0.044469308
13	0xbd2f65e3	-0.042821776
14	0x3ccca7c7	0.024982346
15	0xbd3436ea	-0.043997683
16	0x3d24b979	0.040215943
17	0xb98108be	-0.0002461131
18	0xbce8410b	-0.028351327
19	0xbc63a809	-0.013895043
20	0xbc668bba	-0.014071399
21	0x3cc7cf64	0.024390884
22	0xbd6871be	-0.056749098
23	0xbd482eb8	-0.04887268
24	0xbd382c41	-0.04496408
25	0x3d4f109d	0.050552953
26	0xbbc2290a	-0.0059253024
27	0x3c46c4bf	0.012131869
28	0x3d345ebb	0.044035655
29	0xbcb5ba54	-0.022183575
30	0xbd222422	-0.03958524
31	0x3ce91db7	0.028456552
32	0x3bc7bf30	0.0060957894
33	0x3c010821	0.007875473
34	0x3d4ba59b	0.04971848
35	0xbd1c6582	-0.038182743
36	0x3d241656	0.040060364
37	0x3d8b24b1	0.06794108
38	0x3d28bee8	0.041197687
39	0x3afd06ea	0.0019304429
40	0x3d386ea9	0.04502741
41	0x3c85ff07	0.016356958
42	0x3cd1e279	0.025620686
43	0x3d032356	0.03201612
44	0x3d945ba5	0.07244042
45	0x3c9e780d	0.019344354
46	0xbcd3eef8	-0.025870785
47	0xbc9aee0a	-0.018912334
48	0x3d36e948	0.044656068
49	0xbb4ff932	-0.0031734225
50	0xbcc0f1df	-0.023552833
51	0x3cd45a9c	0.025922112
52	0x3cedd1cf	0.029030709
53	0x3a80a321	0.0009814241
54	0x3bcb50c0	0.0062046945
55	0x3d879f9f	0.06622242
56	0x3d8a9207	0.06766134
57	0x3d52bbb3	0.051448535
58	0x3d2f8449	0.042850766
59	0xbb20bf70	-0.0024528168
60	0x3d8691de	0.06570791
61	0xbc448a89	-0.01199592
62	0x3d14bbd8	0.036311954
63	0xbd1042e9	-0.03522006
64	0xbca5c010	-0.020233184
65	0x3cb8b1b7	0.022545679
66	0xbce58097	-0.028015418
67	0x3cb14628	0.021639898
68	0xbc57d48a	-0.013173232
69	0x3d2e69f4	0.042581514
70	0x3d410c38	0.047130793
71	0xbc061e97	-0.008186004
72	0x3cfa5a97	0.030560775
73	0x3d361401	0.04445267
74	0x3d6094c5	0.054829378
75	0x3d368ac2	0.044565924
76	0x3c8b38cb	0.016994854
77	0x3d23b577	0.03996798
78	0x3c0e4b2b	0.008684914
79	0xbd36638e	-0.044528536
80	0xbd0b3d14	-0.033993796
81	0xbcceeff0	-0.025260895
82	0xbd211c3e	-0.039333574
83	0x3c4eace3	0.012614462
84	0xbaeecc7f	-0.0018218904
85	0x3c561583	0.013066652
86	0x3c8080de	0.015686449
87	0x3d976511	0.07392324
88	0xbcc130f4	-0.023582913
89	0x3c7ca4e2	0.0154201705
90	0x3d331646	0.043722413
91	0xbd2eb40f	-0.042652186
92	0x3d8f58f7	0.069993906
93	0x3c0eb16b	0.008709292
94	0x3c180469	0.009278395
95	0x3d384c1b	0.044994455
96	0x3c21a947	0.009867019
97	0x3d3bc04e	0.045837693
98	0x3bc4b72b	0.0060032806
99	0x3baf4196	0.0053483946
100	0x3d58193b	0.052758437
101	0x3d260768	0.040534407
102	0x3d00598f	0.03133541
103	0xbaa73fac	-0.0012760065
104	0x3cc344bf	0.023836492
105	0x3d304da0	0.04304278
106	0xbd32c7bf	-0.043647524
107	0x3d109870	0.035301626
108	0xbb1bf1c7	-0.0023795234
109	0x3ced4944	0.0289656
110	0xbc91c46e	-0.01779386
111	0xbca1e152	-0.019760761
112	0xbb8e6af0	-0.004346244
113	0xbcb8ddff	-0.022566793
114	0x3c142223	0.009041342
115	0xbcee6358	-0.029100105
116	0x3c4fe6b3	0.01268928
117	0x3d375ead	0.044768024
118	0x3d2e84b8	0.04260704
119	0x3d34168f	0.043966826
120	0x3ae7c37b	0.0017682159
121	0xbd06e439	-0.032932494
122	0xbb3f1bc3	-0.0029160834
123	0x3c293069	0.010326483
124	0x3d42290a	0.04740242
125	0xbcadcb45	-0.02121509
126	0x3c84c446	0.016206872
127	0x3d1895ae	0.03725212
128	0x3cccaecb	0.024985692
129	0x3c379a0f	0.011206164
130	0x3ce0f33c	0.027459733
131	0x3d0bd54b	0.03413896
132	0x3d81f84d	0.06346188
133	0x3cd621e7	0.026139213
134	0x3b0c4b28	0.0021407101
135	0xbc129157	-0.0089457845
136	0x3d60e8b7	0.054909434
137	0x3d688d68	0.05677548
138	0x3cd3eff5	0.025871256
139	0x3d90ec35	0.07076303
140	0x3cb7a4f7	0.022417529
141	0x3ce647fe	0.0281105
142	0x3d8098e5	0.06279162
143	0x3d0f6093	0.03500421
144	0xbd1757d3	-0.03694899
145	0x3a9a84a2	0.0011788795
146	0x3d697cb7	0.057003703
147	0x3ce0a94e	0.02742448
148	0xbcbce7ed	-0.02305981
149	0x3c9121ea	0.017716367
150	0x3d620fa5	0.0551907
151	0x3b762ea2	0.0037564416
152	0x3d7f2af2	0.062296815
153	0xbd0b7aa6	-0.034052514
154	0x3d41f07e	0.04734849
155	0x3c25032b	0.010071556
156	0x3c4baf14	0.012431879
157	0x3d251f8a	0.04031328
158	0x3d91d3cd	0.07120476
159	0xbccc5853	-0.02494446
160	0x3cbf1950	0.0233275
161	0x3d4ed87e	0.05049943
162	0x3d5c857f	0.05383825
163	0x3d2cf2a5	0.04222359
164	0x3d011964	0.031518355
165	0x3d422199	0.047395322
166	0x3cefb450	0.029260784
167	0x3c00f7be	0.007871566
168	0xbd34bf62	-0.04412783
169	0x3d60d950	0.054894745
170	0x3cc79786	0.024364244
171	0xbc6fd555	-0.014638265
172	0xbc8935a9	-0.01674922
173	0xbd2edb50	-0.04268962
174	0xbc5725b5	-0.013131549
175	0x3d8f23e2	0.06989266
176	0x3d9f5169	0.077792
177	0x3cf0fa77	0.029416306
178	0x3d233d40	0.039853334
179	0x3bd9ade5	0.0066430443
180	0x3cae5e06	0.021285068
181	0x3d7945f7	0.06085774
182	0x3b87c3c4	0.00414321
183	0x3c310eb4	0.010806728
184	0xbc4ef454	-0.012631495
185	0x3c63c6aa	0.013902346
186	0xbbc762ec	-0.0060847905
187	0x3d98354e	0.07432042
188	0xbc8f7b83	-0.01751495
189	0x3d12956d	0.035787035
190	0xbc9b1735	-0.018931964
191	0x3d1295da	0.03578744
192	0x3d7ff309	0.062487636
193	0xbcc8d966	-0.024517726
194	0xbd473af7	-0.048640218
195	0xbd034fa7	-0.032058384
196	0x3d8f1bc3	0.06987717
197	0x3b2f0ca3	0.0026710413
198	0x3ce0d36e	0.027444568
199	0x3d5da183	0.054109108
200	0xbcc0545a	-0.023477722
201	0x3c452b5f	0.012034266
202	0xbd18a8ae	-0.03727024
203	0xbd281467	-0.041035082
204	0x3d2a0a35	0.04151364
205	0xbd1c44bc	-0.038151488
206	0x3cd64b70	0.026159018
207	0x3db3cf6f	0.08779799
208	0x3d5b41d1	0.053529564
209	0xbd0a6137	-0.033784118
210	0xbb907bc6	-0.004409286
211	0x3d3d1542	0.04616285
212	0x3ad798f7	0.0016448785
213	0x3d0f0df7	0.034925427
214	0xbb915a85	-0.0044358396
215	0x3d7a0bd1	0.061046425
216	0xbc8d6395	-0.017259398
217	0x3d086692	0.033300944
218	0xbd1a3a3f	-0.037653204
219	0xbd0624db	-0.032749992
220	0xbd18b803	-0.037284862
221	0x3d090a45	0.03345706
222	0x3d2cde27	0.04220405
223	0x3cc2f883	0.02380014
224	0x3d8edbfa	0.06975551
225	0x3cabdc87	0.02097918
226	0x3d8f2158	0.06988782
227	0x3d0e82e8	0.03479281
228	0x3c50fd22	0.012755664
229	0xb9d01d74	-0.00039694796
230	0x3d8189ef	0.06325137
231	0x3bec8dcf	0.0072190533
232	0x3d3e1d15	0.046414454
233	0xbc9ca4a0	-0.019121468
234	0x3c76bbe6	0.015059447
235	0x3d69c79d	0.05707513
236	0xbbfee3bd	-0.0077786134
237	0x3ce61ea1	0.028090777
238	0x3ccf19a5	0.025280783
239	0xbd3f953b	-0.046773177
240	0x3c05cb7a	0.008166188
241	0xbcf4100d	-0.02979281
242	0xba2af344	-0.0006521235
243	0xbcd25cf3	-0.025679087
244	0xbc522192	-0.012825387
245	0x3d6738cb	0.056450646
246	0x3d6cf38e	0.05784946
247	0xbd187519	-0.037221048
248	0x3d3cb47b	0.046070557
249	0x3c0bec59	0.008540236
250	0xbcab7601	-0.020930292
251	0xbd06581d	-0.032798875
252	0x3d55c7a2	0.052192338
253	0x3ceece7d	0.029151196
254	0x3c84c64a	0.016207833
255	0x3c331eb5	0.010932614

fc3.weight f4 [6, 256]
0	0x3e014334	0.12623292
1	0xbda7d148	-0.08194214
2	0x3d563c1e	0.052303426
3	0xbd2c9989	-0.04213861
4	0x3d8e1ab3	0.06938686
5	0x3e248c41	0.16069128
6	0xbe27ce17	-0.16387211
7	0x3e5433ab	0.20722835
8	0x3e4994c2	0.19685653
9	0xbe3e4585	-0.18581207
10	0x3e854bed	0.2603449
11	0xbc752d8a	-0.014964471
12	0x3e2fef30	0.17181087
13	0xbdcf7530	-0.101297736
14	0x3e50ab2e	0.203778
15	0x3d40b4e9	0.04704753
16	0xbe8c40c4	-0.27393162
17	0x3e66b911	0.22531535
18	0xbdf5d444	-0.12003377
19	0xbe842d51	-0.25815824
20	0x3cdcf866	0.026973914
21	0xbe732834	-0.23745805
22	0xbe5d4d01	-0.21611406
23	0x3e48a84b	0.19595449
24	0x3db5902f	0.088653915
25	0xbe375984	-0.17905241
26	0xbe0b2e36	-0.13591847
27	0x3d4bd055	0.049759228
28	0xbe2750a7	-0.1633936
29	0xbd4b6796	-0.049659334
30	0xbd0b6c0e	-0.034038596
31	0xbe29ecbb	-0.16594212
32	0xbdef62d9	-0.116887756
33	0x3dcbfc1c	0.099601954
34	0xbe12cc7e	-0.1433582
35	0xbd45c1be	-0.04828047
36	0xbdb67af2	-0.08910169
37	0xbe8b7f17	-0.272454
38	0x3e2e2d0f	0.17009376
39	0xbe0ee52d	-0.13954611
40	0x3d481c51	0.04885513
41	0xbe1e3d71	-0.15453126
42	0xbe30828b	-0.17237298
43	0x3d96f7b9	0.07371468
44	0xbe02524c	-0.12726706
45	0x3b9fd53c	0.0048777144
46	0xbdad8e57	-0.08474415
47	0xbe4cbe6a	-0.19994512
48	0x3e407da4	0.18797928
49	0x3e1c6ae0	0.15275145
50	0xbd832bb1	-0.06404818
51	0x3e4aa88b	0.19790857
52	0xbc19791d	-0.009367255
53	0xbd194a06	-0.03742411
54	0x3d8ffdb0	0.07030809
55	0x3d038772	0.032111593
56	0xbe10f95c	-0.14157623
57	0x3e16ebcc	0.14738387
58	0x3d826349	0.063665934
59	0x3dae9730	0.085249305
60	0x3d93673d	0.071974255
61	0xbe427db5	-0.18993266
62	0x3e028603	0.12746434
63	0x3dac3467	0.084084325
64	0xbe49c853	-0.19705324
65	0x3db591fa	0.088657334
66	0xbc9fe646	-0.019518983
67	0xbcea0888	-0.028568521
68	0xbbb08d35	-0.005387927
69	0xbcf054ce	-0.029337313
70	0xbc7c6da9	-0.015407004
71	0xbd7c636e	-0.06161826
72	0x3eb583f6	0.3545224
73	0x3d7401c8	0.05957201
74	0xbe050693	-0.12990789
75	0x3df24cb9	0.1183104
76	0x3e0283fc	0.1274566
77	0xbe0fed9e	-0.14055488
78	0xbe27f4b5	-0.16401942
79	0xbe059a73	-0.13047199
80	0x3c290eb8	0.010318451
81	0x3e5f6848	0.21817124
82	0xbdde1f2f	-0.108457915
83	0x3de97991	0.1140014
84	0xbe2774e3	-0.16353182
85	0xbe3ace15	-0.18242677
86	0x3ea5d174	0.32386363
87	0xbdba5389	-0.09097964
88	0xbde5f2c2	-0.11227943
89	0x3eb5101b	0.3536385
90	0xbe3eb898	-0.18625104
91	0x3d166b0e	0.03672319
92	0xbd1fddc2	-0.039029844
93	0x3d56cebb	0.052443247
94	0x3e04cc4f	0.12968563
95	0xbdf9e3b1	-0.12201632
96	0xbe109eb6	-0.14123043
97	0x3e3b6981	0.18301965
98	0x3d1346da	0.03595624
99	0xbddc6d87	-0.10763078
100	0x3e56c654	0.20974094
101	0x3cdfb39e	0.027307328
102	0x3da5103f	0.08059739
103	0xbdbc4240	-0.09192324
104	0xbe09e4b4	-0.1346615
105	0x3e11907b	0.14215271
106	0x3e0a4ab7	0.13505064
107	0xbe0afc18	-0.13572729
108	0x3d72548c	0.05916266
109	0x3e80840b	0.2510074
110	0x3e154a28	0.1457907
111	0xbe47a1dd	-0.1949534
112	0x3dd7c077	0.10534757
113	0x3e48efce	0.19622728
114	0x3e282cab	0.1642329
115	0x3e582251	0.2110684
116	0xbd0a3097	-0.033737745
117	0x3e0e517e	0.13898274
118	0xbe7531f9	-0.23944844
119	0xbe22984e	-0.15878412
120	0xbdf96c94	-0.12178913
121	0x3e2ba4c0	0.16762066
122	0xbda31b19	-0.07964153
123	0xbe421d86	-0.18956575
124	0x3e50d4dd	0.20393701
125	0xbbae0cc1	-0.005311579
126	0xbe0c9ef7	-0.13732515
127	0x3e1b1674	0.15145284
128	0xbe249bca	-0.16075054
129	0x3d5969cf	0.053079423
130	0xbe50cb17	-0.20389973
131	0x3e57a739	0.21059884
132	0x3ea39cab	0.31955466
133	0x3df5d819	0.12004108
134	0x3dba346f	0.09092032
135	0x3df8d330	0.12149656
136	0xbdf917f6	-0.12162773
137	0x3e61446a	0.21998754
138	0x3e7cd128	0.24689162
139	0x3d984187	0.07434373
140	0x3d0c0846	0.034187578
141	0xbcab5154	-0.020912804
142	0x3e54d827	0.2078558
143	0x3e5b6c5d	0.21428056
144	0xbde84bc0	-0.11342573
145	0x3e26016e	0.16211483
146	0xbeae2dfe	-0.34019464
147	0x3e68642a	0.2269446
148	0x3e3911fd	0.18073268
149	0x3e513276	0.20429406
150	0x3e8dbc57	0.27682754
151	0x3ccd652a	0.025072653
152	0xbe2e3b35	-0.17014773
153	0x3de54f5a	0.11196776
154	0x3e20614f	0.1566212
155	0x3e6d5223	0.23175864
156	0xbd9ce03d	-0.076599576
157	0x3df68a91	0.12038148
158	0xbe014f77	-0.1262797
159	0xbdeb6141	-0.11493159
160	0xbd9ee474	-0.07758418
161	0x3ebe7380	0.37197495
162	0x3c931024	0.017952032
163	0x3e59a220	0.21253252
164	0xbd92438f	-0.07141792
165	0xbc4c40a5	-0.012466584
166	0xbe26324a	-0.16230121
167	0x3d9c485e	0.076309904
168	0x3d275449	0.040851865
169	0xbe4a7f9e	-0.19775245
170	0x3dadb255	0.0848128
171	0xbdcebf90	-0.100951314
172	0xbe18274b	-0.14858739
173	0xbdfe6879	-0.1242227
174	0x3e4ff57c	0.20308489
175	0x3e383f42	0.17992881
176	0xbcade066	-0.021225166
177	0x3d4cd65c	0.050009117
178	0x3e832712	0.25615746
179	0x3ec4116e	0.38294548
180	0x3d36b443	0.044605505
181	0x3c932f02	0.017966751
182	0x3d75deae	0.060026817
183	0x3e165f6a	0.14684835
184	0x3eafdd99	0.34348753
185	0xbdca6b7c	-0.09883782
186	0x3d7d0dd1	0.061780754
187	0x3df02aea	0.11726935
188	0xbe4cad50	-0.19987988
189	0x3ddb8565	0.10718802
190	0x3d7d2d94	0.061811045
191	0xbcb5561f	-0.022135792
192	0x3de324db	0.11091014
193	0xbdc898b1	-0.097947486
194	0xbec15094	-0.3775679
195	0x3dd3658d	0.10322104
196	0x3d985eac	0.07439932
197	0x3e3e85d8	0.18605745
198	0x3cad0b20	0.021123469
199	0x3b1d3ede	0.002399377
200	0xbdabb78d	-0.08384619
201	0xbe148cd4	-0.14506847
202	0x3e5effd6	0.21777281
203	0xbea8465a	-0.32866174
204	0xbe0c1307	-0.13679133
205	0xbec206f3	-0.37895927
206	0x3e20184f	0.15634273
207	0xbd36ac95	-0.04459818
208	0xbd47fcb2	-0.048824973
209	0xbd1c2109	-0.038117442
210	0x3e917c7e	0.28415293
211	0x3eab13fb	0.3341368
212	0x3dd06b4b	0.101767145
213	0xbdae3fa2	-0.08508231
214	0xbe01af1f	-0.1266446
215	0xbded4d67	-0.11587029
216	0x3be0fae6	0.006865847
217	0x3e43ac3b	0.1910867
218	0x3db8ff8c	0.09033117
219	0xbe206c14	-0.15666229
220	0xbbe45533	-0.0069681644
221	0xbe3290e6	-0.17438087
222	0xbe8cd4ed	-0.275062
223	0xbe13948e	-0.14412138
224	0xbe2269a2	-0.15860608
225	0xbd98c6a6	-0.07459764
226	0xbdaff1b4	-0.08591023
227	0x3e405fbd	0.18786521
228	0x3dd40655	0.1035277
229	0xbe85b383	-0.2611352
230	0x3e3ae166	0.18250045
231	0xbcc4aaa5	-0.02400715
232	0x3bf1fb84	0.0073847193
233	0x3d7b1858	0.061302513
234	0xbdd10c64	-0.102074414
235	0xbcffc757	-0.031222982
236	0xbdd61080	-0.10452366
237	0x3e4014ee	0.18757984
238	0x3e84c761	0.25933364
239	0x3e3510c4	0.17682177
240	0x3d39558f	0.04524761
241	0x3ddac623	0.10682323
242	0xbde2e782	-0.11079313
243	0xbe06ce16	-0.13164553
244	0xbc79b3d0	-0.015240625
245	0xbddf2a31	-0.10896719
246	0xbe5a9bea	-0.21348539
247	0xbded8cd3	-0.11599126
248	0xbd094e09	-0.033521686
249	0x3e09e0ec	0.13464707
250	0xbccd56b8	-0.025065765
251	0xbdbb06e5	-0.091321744
252	0xbd646133	-0.05575676
253	0x3e0c1863	0.13681178
254	0x3dc5412f	0.096315734
255	0x3d8c52c5	0.068517245

fc3.bias f4 [6]
0	0x3d06178f	0.03273731
1	0x3ce2dd87	0.027693523
2	0xbc8307c6	-0.015994918
3	0x3d082728	0.033240467
4	0xbd423c33	-0.04742069
5	0x3d544d6f	0.05183166
