rubiks_dqn_policy_net_19999.pth (torch, 421125 bytes, 6 tensors)

fc1.weight f4 [256, 144]
000000 7b b0 df bc c4 45 85 3c 4e 2f fd bd 62 a9 b1 bd
       -0.027305832 0.016268618 -0.12362538 -0.08674885
000010 14 12 b2 3d 1e d9 b9 bd f8 42 6b bd 07 78 72 3c
       0.086948544 -0.09074615 -0.057436913 0.014799125
000020 b7 a6 31 3d 21 14 2b 3c 60 f3 53 3d 02 8f 14 3c
       0.043371882 0.010441811 0.051745772 0.009067299
000030 f4 35 9f 3c f4 de 04 bc 1d 5b f8 bd 0d 52 4b bc
       0.019434907 -0.008109797 -0.121267535 -0.012409699
000040 05 1f 10 bd bc 82 ed bd 73 c9 ae 3d 5f 5b 93 3d
       -0.035185833 -0.11597201 0.08534517 0.07195162
000050 3f dc 05 be 23 b0 14 3d 49 d3 9a 3d 5f d9 2b 3d
       -0.13072298 0.03630079 0.07559831 0.041955348
000060 76 58 94 bc 93 cf 6c bd 66 1a 2f bd 62 77 28 bc
       -0.018108588 -0.057815146 -0.042749785 -0.010282369
000070 77 5d fe 3c 95 f6 6b 3d fc ee a0 bb 15 f6 e5 3c
       0.031050427 0.057608206 -0.0049113017 0.028071443
000080 33 1e 21 bc a7 aa 7f bc c4 16 c2 3c 89 31 90 bb
       -0.00983386 -0.0156046515 0.023692496 -0.0044004363
000090 cb 6d 57 3d 08 48 21 3a 8e 61 3f 3d 3f 60 d2 bd
       0.05259494 0.0006152396 0.046723895 -0.10272264
0000a0 2b 42 6a 3d da a9 c6 3d 78 28 dc bc 34 58 bf bd
       0.05719201 0.09700365 -0.026874766 -0.09342995
0000b0 64 fc c6 bd 63 60 1c bd 91 6f f3 3a 67 8c 50 3c
       -0.097161084 -0.03817786 0.0018572678 0.012728787
0000c0 9a df 8d bd 84 fb fc bc 77 82 5f 3d f2 b6 18 bd
       -0.06927414 -0.03088165 0.05456778 -0.037283845
0000d0 a5 85 ec bd ea 1a fa 39 ce 02 22 bd e5 3e c1 bc
       -0.11548928 0.00047703768 -0.039553456 -0.02358956
0000e0 1d 20 30 bd b1 b0 bf b9 5c 71 7f 3d a3 6c 14 bd
       -0.042999376 -0.00036562004 0.062363967 -0.036236417
0000f0 fe 39 12 3d 77 49 96 bd aa a2 79 3d cf c2 8f bd
       0.035699837 -0.07338231 0.060946144 -0.07019579
000100 e1 30 18 bd d3 a1 dd bc 5f 41 9a bd b3 3c a6 bd
       -0.03715599 -0.027054703 -0.07532 -0.08117046
000110 6c ee 97 bd 78 a0 39 bd 3a d4 d5 3c 8a 8c af 3d
       -0.07418522 -0.04531905 0.026102174 0.085717276
000120 ab ea cd 37 ae 41 b2 bd 6c 28 ae 3d 33 d9 7a bd
       2.454718e-05 -0.08703934 0.085038036 -0.061242294
000130 c2 ab 09 bb 3e 4b 2f bd 60 08 7e 3c 4e 52 c6 bb
       -0.0021006917 -0.042796366 0.015504926 -0.006052292
000140 29 39 82 bd 98 70 f3 bc 50 d0 d1 bb 2a 6e 9a bd
       -0.06358559 -0.029716775 -0.0064030066 -0.075405434
000150 11 82 e5 bb 27 35 85 3d 1d d9 a8 3c 90 ab f3 3d
       -0.0070040305 0.06504279 0.02061134 0.11897957
000160 ab ce 92 3d 2a c8 c1 bc 26 7c 02 bb 87 c8 07 3d
       0.07168325 -0.023655016 -0.0019910424 0.033150222
000170 c8 0d bb bc 00 00 ec 39 36 15 e9 bb da 20 b2 bb
       -0.02283372 0.00045013428 -0.0071131242 -0.005436045
000180 c8 12 11 bd b8 2f 77 bc 66 27 21 3c bd 7e 7d bd
       -0.0354183 -0.015087061 0.0098360535 -0.061888445
000190 cf ed 02 be 45 e8 06 3d 80 51 af bb 8e 08 e8 bc
       -0.1278603 0.032936353 -0.0053502917 -0.028324392
0001a0 68 fd 9e bc 2f e9 8b 3d 04 7a d5 bd 62 9b 73 bc
       -0.019407943 0.068315856 -0.10423663 -0.014868589
0001b0 7d c4 13 3d 54 d5 32 bd 92 f5 d1 3c 47 80 52 bd
       0.036076058 -0.043660477 0.025629792 -0.051391866
0001c0 08 a9 b1 3c b1 8c d5 3d 84 f4 9e bd d4 b0 04 bd
       0.021687046 0.104272254 -0.077614814 -0.0323952
0001d0 1d d9 5a bd ab e2 70 bd 4e b5 20 bd ec 61 39 3d
       -0.05342971 -0.058809917 -0.039235406 0.0452594
0001e0 5c 9b 87 bd fc 6c 0b bc 30 2f 9c 3d 56 6a 3b bd
       -0.06621429 -0.008509871 0.07626188 -0.045755707
0001f0 03 29 1f 3d dc 32 62 3d 96 1a 58 bd f1 9d b6 bc
       0.03885747 0.055224285 -0.05275973 -0.02229211
000200 bf 4f 84 3d ed f3 29 bd 1b 17 00 bc ae 48 bf bd
       0.06460523 -0.04149239 -0.007818009 -0.093400344
000210 ad 38 05 be 50 75 bd bd fe 9d 5b bd da cd b6 bd
       -0.13009901 -0.09250891 -0.05361747 -0.08925982
000220 d5 3b b4 bc 7c b4 f8 3a fc 8f b9 3c 36 50 93 bd
       -0.022001186 0.0018974687 0.022651665 -0.071930334
000230 cf 3e 12 bd 4d ea 80 3c 5d 7a 9f bd 66 e3 bc 3c
       -0.03570443 0.015736723 -0.07787011 0.02305765
000240 91 c7 b9 3d ba cb 6f 3d 91 61 c0 bc 65 75 11 bc
       0.090712674 0.0585439 -0.023484023 -0.008878087
000250 02 0e 19 bc 2f e5 b1 39 1e 13 22 3d 08 44 b9 bc
       -0.009341719 0.00033930826 0.039569013 -0.022615448
000260 04 3f 8d bc e2 d4 9a bc c0 14 8c bd bc f7 32 bc
       -0.017241962 -0.018900339 -0.06839895 -0.010923322
000270 b2 86 85 bd d6 c4 85 bd ff 7c 1e 3c f2 9b c4 bd
       -0.06519832 -0.06531684 0.009673356 -0.09600057
000280 c7 5d 43 3d ba c6 ea bd bb 4a 5b bd 0d bb 92 bd
       0.047696855 -0.11463685 -0.053538065 -0.07164583
000290 b3 a8 69 bc d6 67 10 3b 6b 82 db bd 9c 37 94 37
       -0.014261412 0.0022034547 -0.10718235 1.766887e-05
0002a0 0b b7 9f 3d 69 c7 19 3d 6e 1e 58 bb dc b8 bd bd
       0.077985846 0.037543688 -0.0032977122 -0.09263775
0002b0 44 98 91 bd 39 ac 62 3c 94 01 ba 3c f1 80 38 bd
       -0.071091205 0.013835006 0.02270583 -0.045044843
0002c0 27 1e a3 bd 04 b8 3a bd 15 34 c4 3a 0b e3 34 3d
       -0.079647355 -0.045585647 0.0014969135 0.044161838
0002d0 50 7d 64 bd d3 e1 bf 3c 2f 15 75 3d 37 9d c0 3b
       -0.05578357 0.023423111 0.059834655 0.0058781165
0002e0 73 c3 3d bc 73 f4 9a 3d 2b 46 18 bd f8 85 08 3d
       -0.011582243 0.07566156 -0.037176292 0.033330888
0002f0 ad 8f e3 bd d0 ed 0b bd c5 d2 90 bd 64 eb d2 bd
       -0.11111388 -0.034162343 -0.07071451 -0.102988034
000300 48 11 07 3d c1 00 b0 bb e9 0c 57 3d 13 ab 74 bd
       0.032975465 -0.0053711836 0.052502546 -0.05973346
000310 a8 70 92 3d 46 ed 22 be 2e 3f 6d bd 64 cd 5f bd
       0.07150394 -0.15910825 -0.05792158 -0.054639235
000320 6a f3 00 3c c9 c8 6a 3d 5d dc a0 3d 0b 8d 01 3e
       0.007870534 0.05732039 0.07854531 0.1265146
000330 2d 66 4a bd 7c 97 8a 3c 0b 0a 81 bd 74 93 ab bd
       -0.04941385 0.016917937 -0.06300744 -0.08377734
000340 ae 37 08 be b7 ff 48 3d 77 c7 2c bd 72 53 fb 3c
       -0.1330249 0.049071994 -0.042182412 0.030679438
000350 9a b2 10 be 97 d4 a2 3d 90 27 a9 bb 9b 2b e5 3c
       -0.14130631 0.079507045 -0.005162187 0.027974894
000360 a0 92 ae bc 72 e7 84 3d f0 5c 95 3c 44 11 b5 3d
       -0.02131015 0.06489457 0.018232793 0.08841184
000370 aa 46 e5 bc 8c 13 c2 3b 56 d2 3b bd 93 65 51 3c
       -0.027987797 0.0059227403 -0.04585489 0.012780565
000380 6f 8d 30 bd b0 9d 29 bd ec 1e c8 bd 52 85 0a be
       -0.04310363 -0.04141015 -0.09771523 -0.1352742
000390 d7 12 99 bc 83 17 7d bc b9 3e 07 bd a1 da 91 bd
       -0.018685741 -0.0154475 -0.0330188 -0.07121778
0003a0 8e 59 51 bd 34 1f ef bd 33 3e 03 be c1 00 ed bd
       -0.051110797 -0.116758734 -0.12816696 -0.115724094
0003b0 8e 09 b8 3d 26 df 94 3c 01 7c 8a 3c 17 9d db bd
       0.089861974 0.018172812 0.016904833 -0.10723322
0003c0 a6 8c dc 3c f1 99 b1 3c 5a 4d 70 bd 81 b7 59 3c
       0.026922535 0.02167985 -0.05866752 0.01328838
0003d0 de ad 8a bd 60 e4 d5 3c c3 81 99 bd b5 2e 22 be
       -0.06771444 0.026109874 -0.07495453 -0.1583813
0003e0 7f 39 6b 3d 19 aa 47 be 9a 0d a7 bb 3c 86 e5 bc
       0.05742788 -0.19498481 -0.005098057 -0.02801811
0003f0 ef 40 a9 bd af a6 06 3d 5e c1 81 bd 3b 60 fc bc
       -0.08264338 0.032873806 -0.0633571 -0.030807605

fc1.bias f4 [256]
000000 3f b2 34 bc cb 4f ba 3c 26 87 3c 3c 3d 8b 99 3c
       -0.011028825 0.022743126 0.011506831 0.018743152
000010 4e e1 d8 3d 65 79 af bb 5f 9f 1c 3d 00 03 da 3b
       0.105898485 -0.0053550475 0.038237926 0.0066531897
000020 bf 8f 98 3c 52 3b 52 bc c1 98 0b bd 78 8b a6 3d
       0.018623231 -0.012831526 -0.034081224 0.0813207
000030 83 c8 a9 3d 11 e0 33 3d 76 f0 9b 3d 8d 44 45 bd
       0.08290198 0.04391486 0.07614224 -0.04816108
000040 f7 7c 5c 3d 43 85 d1 bc 70 56 b7 bc a1 1e 4c bd
       0.053830113 -0.02557624 -0.022380084 -0.049833898
000050 a5 ad 84 bd 30 e2 3e bd bc 54 08 bd ed 4f 07 bd
       -0.064784326 -0.046602428 -0.033283934 -0.033035208
000060 fc 90 82 3d b2 4b 8a 3d aa f5 14 3d 8b 57 2e 3d
       0.0637531 0.06752719 0.036367096 0.042563956
000070 42 8f 06 bd 27 95 35 bd a2 72 85 3d d2 b9 5f 3d
       -0.032851465 -0.044331696 0.06516005 0.05462057
000080 d7 cd 26 3d 46 7c a5 3d 58 e4 53 bd 3e 32 6f 3d
       0.040723648 0.08080344 -0.051731437 0.058397524
000090 d0 09 ba 3d 53 58 90 3d 3b 64 8f 3d 01 1f 82 3d
       0.09083903 0.070480965 0.07001539 0.0635357
0000a0 01 8c a8 bc cd ee 6d 3b 4c 35 b7 3c 2d e7 04 3d
       -0.020574572 0.0036305666 0.022364281 0.03244703
0000b0 ff 0f ae 3c d6 05 42 bd 73 e4 a9 bc 34 81 c9 3d
       0.021247862 -0.047368847 -0.020738816 0.09839097
0000c0 3e 88 2b bd f6 5e 2a 3d 4b ef a0 bc e8 4d c7 3d
       -0.041877978 0.041594468 -0.019645354 0.09731656
0000d0 d7 21 af 3c 2f 12 80 bc 1a 37 67 bd 6f 7e a5 3c
       0.02137844 -0.01563367 -0.056449033 0.02020189
0000e0 02 82 bb 3d b4 be 5a bd 9a 13 29 3d fc a0 a4 3d
       0.091556564 -0.053404525 0.04127846 0.08038518
0000f0 60 74 ba 3d 64 3c 34 bd a3 fe 2f bd be 1e 65 3c
       0.09104228 -0.044002905 -0.04296745 0.01398438
000100 b8 7a 03 3d 1d ce a8 3d d4 9b 3d bd d9 33 8f bb
       0.032099456 0.08242438 -0.046291187 -0.0043701944
000110 e9 86 8c 3d e8 39 a9 bc 95 c7 bd bc b4 a3 4a bd
       0.068616696 -0.020657495 -0.023166457 -0.049472526
000120 9e 6f b1 3c 68 cd b9 bc 88 3f 2b bd 0c 98 98 3b
       0.021659669 -0.022680953 -0.041808635 0.0046567973
000130 4e 24 1d 3d c2 f7 e4 3d 91 ea 86 bd 3a e5 b4 3d
       0.0383647 0.111800686 -0.06587709 0.08832784
000140 65 44 78 3c 2d cf 99 3d a4 39 8f 3c 72 00 74 3d
       0.015153025 0.07510219 0.01748354 0.059570737
000150 fc c1 a4 3d b6 10 3a bc 03 0f bd 3d 5f 21 cb 3c
       0.08044812 -0.011356523 0.09231379 0.024796186
000160 a4 98 03 3d 9c fe 0f 3d 4f 47 7d bc 58 91 76 3c
       0.03212799 0.035154924 -0.015458896 0.015049301
000170 a7 d1 15 3c c9 9c d7 3d fa 75 a1 3d 27 25 92 3d
       0.009144223 0.10527951 0.0788383 0.071359925
000180 57 1f a2 3d 88 c9 74 bd db 3f 7a bd 54 98 33 bd
       0.07916134 -0.059762508 -0.061096054 -0.043846443
000190 25 db 7b bc 64 cb a4 3d 5f eb 33 bd 5f 95 aa 3d
       -0.015372072 0.08046606 -0.04392564 0.083292715
0001a0 0c 71 08 3d 7a c8 8d 3d 37 42 38 bc 47 53 13 bc
       0.033310935 0.069230035 -0.011246256 -0.008992023
0001b0 fa 79 fd bc ab bb 3c bd 8e a1 01 3d 63 a9 82 bd
       -0.030941952 -0.04607741 0.03164821 -0.06379964
0001c0 81 3d a5 3c 93 1c 81 3d 69 ee 0d bd ef be 11 bc
       0.020170929 0.06304278 -0.034651194 -0.00889562
0001d0 ee 71 ae 3d 42 99 2f bd 93 2d bf 3d 98 61 b3 bc
       0.08517824 -0.042870767 0.093348645 -0.021897122
0001e0 1a e1 35 3d 10 82 19 3d 8c 6b 4a bd 06 6e f9 bc
       0.044404127 0.037477553 -0.04941897 -0.030447971
0001f0 27 fc a1 bc ed 15 ac 3d 60 49 34 bc c2 7e 59 3c
       -0.019773556 0.084026195 -0.011003822 0.01327485
000200 64 7b 5c 3d 41 12 07 3d 37 53 61 3d a7 45 ae 3d
       0.053828612 0.032976393 0.055011 0.08509379
000210 76 f6 77 3b 8b 73 0e bb fa 38 19 bc d5 00 9d 3d
       0.003783611 -0.002173635 -0.009351963 0.07666174
000220 98 f6 5b 3d 17 83 ba 3d 60 77 23 3d eb d4 d0 bc
       0.053701967 0.09107035 0.039908767 -0.025492152
000230 f8 d5 30 bd 3a 65 ad 3d 9d 44 d4 3b 7a 7b 5b bd
       -0.043172807 0.08466573 0.006477906 -0.053584553
000240 6f 0f 50 bd 13 b1 6b bd 6c 24 c9 3c d8 c9 2b 3c
       -0.05079597 -0.057541918 0.0245535 0.010485135
000250 35 ec cf 3c 36 ce a7 3d 47 ac 92 bc ac 9c 8e bc
       0.025381187 0.081936285 -0.017904414 -0.017408691
000260 2e 64 c6 bc b2 c8 eb bc 16 19 c1 3d 66 23 46 3d
       -0.024217691 -0.028782222 0.09428613 0.048373602
000270 ca 8e 48 3d b2 9d 41 3d 81 c4 92 bd 59 fe 22 bd
       0.0489643 0.04726953 -0.071663864 -0.039793346
000280 14 80 3a bc 5c a4 c5 3d 46 e1 4e bd c9 23 12 bd
       -0.011383075 0.0965049 -0.050507806 -0.03567866
000290 b3 bb 9e 3b 25 a2 50 bd 87 8e 2f bd 6f e8 66 bd
       0.004844153 -0.050935883 -0.042860534 -0.05637401
0002a0 e4 43 3f bd 03 1d 8f 3d ae af a8 3d 86 6b 4e bd
       -0.046695605 0.069879554 0.08236633 -0.05039551
0002b0 61 05 af 3c 96 28 1c 3c 1c c1 c7 3c e7 a6 81 3c
       0.02136487 0.009531161 0.024384074 0.015826656
0002c0 bf ab 9e 3d 7f 8b 61 bd a0 e0 09 3c 13 a3 ce bc
       0.07747602 -0.055064674 0.008415371 -0.025224244
0002d0 80 d2 87 bd d3 16 7d 3d 11 89 49 bd d2 82 98 3d
       -0.066319466 0.061789345 -0.049202982 0.07446827
0002e0 df 1a 1b bd 33 b9 9f 3d 8b 8f fc bc ea 4e ef 3c
       -0.037867423 0.07798996 -0.030830165 0.029212434
0002f0 9c 5d 00 bd 78 6c 22 3d 2c 44 1e bd ea a7 42 bd
       -0.031339273 0.039654225 -0.038639233 -0.047523417
000300 d7 64 60 3d 1a f1 26 3d 68 14 fb bb 36 cd 5e bd
       0.05478367 0.040757276 -0.0076623447 -0.054394923
000310 20 a4 16 bd f0 c7 56 bc 1c 39 90 3d d8 ea 70 3b
       -0.036777616 -0.013109192 0.07042143 0.0036761072
000320 22 d7 8f 3d 5d 4e c9 3d 4b c0 24 bd 00 36 02 3d
       0.07023455 0.098294 -0.040222447 0.03178978
000330 d0 c4 50 bd 83 4d 5a bc 45 34 70 3d 52 71 49 3d
       -0.050968945 -0.013324144 0.058643598 0.049180336
000340 0a 6b 86 bd cf ec 85 3d 4d b8 1e bc 9e 02 25 bd
       -0.06563385 0.06539308 -0.009687495 -0.0402857
000350 0e 13 67 3d cf 97 57 3d ec a2 09 bb 53 79 d3 3c
       0.056414656 0.05263501 -0.002100165 0.025814688
000360 bd e6 a3 3d e9 66 87 3d 3e c7 6c 3d 34 92 cb 3b
       0.08002994 0.066114254 0.0578072 0.006212497
000370 fc d1 fa 3b 85 39 68 3d f6 6b 2a 3d 70 b1 cc 3d
       0.0076544266 0.05669548 0.041606866 0.09994781
000380 c3 b4 4b bc 49 e2 23 bd c7 06 8c 3c e4 5f 4c 3d
       -0.012433234 -0.040010724 0.017093075 0.049896136
000390 73 4f 90 3d 07 53 8a 3d 75 b3 60 3d 9d ab ff 3c
       0.07046404 0.067541175 0.054858644 0.031209761
0003a0 21 18 74 bd 63 6f 3b 3c 52 ce 15 3b 24 ba f1 3b
       -0.059593324 0.011440131 0.0022858572 0.007376926
0003b0 e7 f0 41 3d 98 86 65 3d 9e 95 3b bc 1e 63 3e bc
       0.047348883 0.05603656 -0.011449246 -0.011620311
0003c0 33 ce 8c 3c 93 3e a7 3d 4c 0e 8b 3d 0c b4 b1 3c
       0.017188167 0.08166232 0.06789836 0.021692298
0003d0 7f fb 59 3d dd b6 86 3d 7b 69 17 3d ea c7 8c 3c
       0.05321836 0.06577847 0.03696583 0.01718517
0003e0 ad 20 66 3d c3 05 b9 3d 08 71 a4 3b 62 02 23 3d
       0.056183506 0.09034302 0.005018357 0.039797194
0003f0 3a 89 f0 3c b3 e5 bf 3d 08 55 48 bd 72 2d 4b bd
       0.02936231 0.093699835 -0.048909217 -0.049603887

fc2.weight f4 [256, 256]
000000 8e 42 8e bc 94 27 ba 3d 0e 61 3c 3c fd 3b 1e 3d
       -0.01736572 0.0908958 0.011497749 0.038631428
000010 71 cb e9 bc ba 6a 9c bd 26 21 ef bc 1d 22 a9 3c
       -0.028539391 -0.07637544 -0.029190611 0.02064615
000020 50 ec fb bc c6 10 98 bc 82 0c 97 3b 4f f8 32 bc
       -0.030752331 -0.018562686 0.0046096453 -0.010923459
000030 74 d5 0d 3d 51 91 a6 3d 37 cd 2e bc 3b b3 0f 3d
       0.034627393 0.08133186 -0.010669044 0.035083037
000040 ce 91 0c b9 a5 7a 55 bd 17 6b 0a bc 84 5c 86 3d
       -0.00013405757 -0.052118916 -0.008448384 0.06560615
000050 85 7a 3f bc b6 66 a2 3c f4 43 b7 bd 32 f1 dc 3b
       -0.011686926 0.019824367 -0.08948508 0.00674262
000060 ea 57 90 3c 80 9d 3f bd 1c 4b 81 3d e6 d2 f1 bc
       0.017620046 -0.046781063 0.06313154 -0.02951951
000070 39 28 87 bd 98 63 9c bc 94 01 e8 bc 1a fd 90 3d
       -0.06599469 -0.019090459 -0.028321065 0.07079525
000080 89 40 80 bd de ef 5c 3d e3 ad cb bc d1 17 4d 3d
       -0.06262309 0.053939693 -0.02486319 0.05007154
000090 19 a3 0d bd 01 2f 2d 3c 67 ec b4 bd b7 5a 6f 3d
       -0.03457937 0.010570289 -0.08834153 0.05843612
0000a0 e7 c2 98 3d 61 3c 96 3d 4f ca 64 3c cd e4 72 bd
       0.0745905 0.07335735 0.01396425 -0.059300233
0000b0 7e b5 e0 3d 6b 0c f8 3c 56 12 90 3d 13 27 1f bd
       0.10972117 0.030279359 0.07034747 -0.038855623
0000c0 f0 63 ab 3c 6c 9e 9c 3c 2f 8f 6e 3d 60 e0 d3 bc
       0.020921677 0.01911851 0.05824202 -0.025863826
0000d0 56 0e ab 3d 36 82 57 3d 38 ec e2 bd d7 9f 45 bc
       0.08352344 0.052614413 -0.110802114 -0.012062035
0000e0 be 67 49 3d da 0a e5 bc d3 6b 77 bc 90 6a 2b bd
       0.049171202 -0.027959276 -0.015101391 -0.041849673
0000f0 bd 5c 52 3d 94 54 9e 3c db 08 d2 bc 4e 32 aa bc
       0.051357973 0.01932744 -0.025638988 -0.02077594
000100 70 bd ee bd 9f 08 23 bc a4 d2 cd bd 54 ac 42 3d
       -0.11657226 -0.009950786 -0.10049942 0.047527626
000110 ea ec 72 3d 33 45 20 3d 13 1e ec bb c9 86 af 3c
       0.05930797 0.039128494 -0.0072057336 0.021426575
000120 e5 de d8 bb e2 16 3b 3d 13 2a 85 bd e1 8c 4c bc
       -0.006618368 0.04567612 -0.06502166 -0.01248476
000130 1e 47 74 bd 1b d8 aa bd ff 49 e3 3c cb 4f 32 bd
       -0.059638135 -0.08342 0.027745245 -0.043533128
000140 94 5b 60 3d 2a 81 81 bd be 65 7e bd 94 da 27 bd
       0.054774836 -0.06323464 -0.062108748 -0.040979937
000150 df 9c ad ba 0a ce 14 bd 10 a8 3b 3d a2 45 c5 bc
       -0.0013245604 -0.036329307 0.045814574 -0.024081055
000160 65 27 6e 3c 2f a6 2b bb 29 78 8f 3d 65 56 11 3b
       0.01453576 -0.0026191582 0.070053406 0.002217674
000170 a7 22 c2 bb 33 4f 82 bd 9c d8 eb bc b6 6c 4c 3d
       -0.005924541 -0.06362762 -0.02878981 0.049908362
000180 56 18 ec bb 3f 95 9e 3d bc dc 70 3d 25 f4 00 bd
       -0.0072050495 0.0774331 0.05880426 -0.031482834
000190 b8 ba 1d bd 20 d2 e2 3c 76 6d 99 bd 70 c4 8c bd
       -0.038508147 0.027688086 -0.07491581 -0.06873405
0001a0 4e fa 88 bc 6c 04 0f be 81 f4 2f 3c eb f4 a4 3b
       -0.016720917 -0.1396653 0.010739447 0.0050340793
0001b0 56 ef d1 3c 33 4a 63 bd 36 c2 b9 3c 36 1b 04 bd
       0.02562682 -0.055490684 0.022675615 -0.032252513
0001c0 49 ef 9d bc 84 98 5e bd 2e 0f 8b bd fd 45 9d ba
       -0.01927914 -0.05434467 -0.06790005 -0.0011999008
0001d0 6b 8a f3 3d e4 45 9f bd 7e 3d c3 3d ef a0 10 be
       0.118916355 -0.077770025 0.09533213 -0.14123891
0001e0 36 73 02 3c 74 29 d8 bd 95 0d 6a bc 0f 0e d6 bd
       0.007962039 -0.105547816 -0.014285465 -0.104519
0001f0 c9 c1 1c bb 0b a8 b3 3d 8f 80 d6 3d af a0 d2 bd
       -0.0023919216 0.08772286 0.10473739 -0.10284554
000200 b0 86 0e 3d 8d d9 27 bd cf 19 f4 bc 62 65 36 bd
       0.034796417 -0.040978957 -0.029797463 -0.04453028
000210 11 87 ab bc f2 37 c8 3c 6c c8 3d 3d 6a 98 60 bd
       -0.020938428 0.02444074 0.046333715 -0.054832853
000220 d1 2f b0 ba 1e f8 d5 bc 2e 2a 89 bd 33 08 74 bd
       -0.0013441985 -0.026119288 -0.06697498 -0.059578132
000230 d7 03 74 3d d4 12 50 3d 10 57 85 bd d9 82 0a 3d
       0.059573974 0.050799206 -0.065107465 0.033816192
000240 54 e8 c4 bd ac 26 f1 bb 4e 89 2b bd a5 30 63 bc
       -0.096146256 -0.0073593464 -0.04187899 -0.013866578
000250 d8 77 f6 b9 f3 d9 1f 3d b1 d5 25 bd 1c 56 6a bc
       -0.00047010067 0.039026212 -0.040486995 -0.014302757
000260 9f 94 2a 3d 4d 00 88 bb 08 41 0f 3d f6 cc d2 3d
       0.041645642 -0.0041504265 0.034974128 0.102929994
000270 4d 01 64 bd 21 47 8c bd be a5 ac bb 4f b2 06 3c
       -0.055665303 -0.06849504 -0.0052687814 0.008221223
000280 d4 7d 5d 3d 55 7d 60 bb 88 60 8a bc a4 b2 80 bc
       0.054075077 -0.0034254391 -0.016891733 -0.015710182
000290 be 1f 06 3d 5c d6 95 bd b7 d8 d2 3d d7 d3 73 3d
       0.032745115 -0.073162764 0.10295241 0.059528198
0002a0 3b c8 3b bc 8d e6 c8 3b 91 44 e3 3c 65 8b 4d bd
       -0.011461313 0.0061309994 0.027742656 -0.050181765
0002b0 bd 09 5b bc 95 87 9d 3d 66 57 fa bc d6 eb fb bc
       -0.013369021 0.07691876 -0.030559253 -0.030752104
0002c0 c0 b1 c5 3d e6 0b 9e 3d 11 7f 8d 3d a5 81 e3 3c
       0.09653044 0.07717113 0.069090016 0.02777178
0002d0 27 47 9e 3d 01 e3 16 3d 39 e9 9e bd d9 04 ad 3a
       0.07728415 0.03683758 -0.077593274 0.0013200297
0002e0 74 8d df 3d f8 f0 78 3c 68 43 6b bd 78 ba 4d 3c
       0.10915652 0.01519417 -0.05743733 0.012556665
0002f0 2d eb 65 3d ef 0e 0d bd 7a 36 a7 bd 70 e5 e3 3b
       0.056132484 -0.03443807 -0.081646875 0.0069548413
000300 11 73 4e ba 79 f7 06 be fe cb 12 3d 67 8c 32 3d
       -0.00078754226 -0.13180341 0.035839073 0.04359093
000310 61 28 07 3d 67 f7 8c 3d 49 f6 11 bd bb 72 8f bd
       0.032997493 0.06883126 -0.035635266 -0.07004305
000320 ff 2a 2b 3d 99 ab a6 bc af d5 e1 bc c3 fb 5d 3d
       0.04178905 -0.020345496 -0.027567713 0.054195177
000330 d8 68 66 bd 75 27 ee bd b8 b8 33 3d a4 4c a6 3d
       -0.05625233 -0.116286196 0.043877333 0.08120087
000340 e3 6d 54 3d 17 bd 47 bd b7 ff 91 3d 2c 6f 88 3d
       0.05186261 -0.048764315 0.07128852 0.06661829
000350 ea cd c0 b9 76 20 93 3d 75 8b e3 3d e4 8d 84 3d
       -0.00036774512 0.07183926 0.11110584 0.06472376
000360 ae 4f 42 bd e3 ff e7 bc 30 68 9d 3c d6 de a0 ba
       -0.04743927 -0.028320258 0.01921472 -0.0012273442
000370 c8 41 9e 3d e5 eb ca 3d 21 c3 86 bc 66 2e ca 3b
       0.077273905 0.099082746 -0.016450467 0.006170082
000380 3a 7d 34 3d 9b c8 8d 3c ec 8c 8f bd 5c d8 3e bc
       0.044064738 0.01730757 -0.070093006 -0.011648264
000390 e9 09 d2 bc 28 27 97 3d 62 a3 7e 3c d1 a6 f5 bb
       -0.025639491 0.07380515 0.015541883 -0.0074966927
0003a0 e3 85 1a bd 88 4b 5d 3a 47 a2 be 3c 6f fb c7 bc
       -0.03772534 0.0008441736 0.02327074 -0.024411885
0003b0 ac 98 a2 3c 5a 7a 85 bd 11 38 3c 3d 29 00 39 bd
       0.01984819 -0.06517477 0.045951907 -0.04516617
0003c0 61 93 d6 3d 03 79 4a bd 23 36 71 3c a1 17 df 3d
       0.10477329 -0.049431812 0.01472238 0.10893179
0003d0 54 8b f9 3b 17 94 49 bd d1 a0 bc 3b 34 d6 9e bc
       0.007615486 -0.049213495 0.0057564755 -0.01938925
0003e0 ae ae 99 bd bd aa 0e 3c 08 a4 28 bc 5b 50 00 3d
       -0.07504021 0.008707699 -0.010293014 0.031326633
0003f0 b9 49 03 bd 22 0d 92 3d 28 86 97 bc 0f 66 f8 3c
       -0.03205273 0.07131411 -0.018496588 0.030322103

fc2.bias f4 [256]
000000 24 c6 9e 3c 66 ce 23 bd eb 57 17 3d 11 c9 8a 3d
       0.01938159 -0.03999176 0.03694908 0.067766316
000010 a2 17 2b 3c 8d 13 8d 3d 75 11 0f bd d7 c7 42 bd
       0.010442646 0.06888495 -0.034928758 -0.047553863
000020 f7 da 39 bc e2 4f c7 ba d2 6c 78 3d bd 2a 39 3d
       -0.011343709 -0.0015206302 0.060650654 0.045206774
000030 af b0 1f 3d 5e eb 42 bd ca 42 e7 3c 3a a0 51 3c
       0.038986858 -0.047587745 0.02823009 0.012794549
000040 82 b8 42 3c fb e9 60 3d 48 c5 9a 3c 63 8c 3e bd
       0.01188481 0.05491064 0.0188929 -0.046520602
000050 57 c0 f2 3c 06 20 05 3c 5e f6 9a 3d 73 04 40 bd
       0.02963273 0.008125311 0.07566522 -0.046879243
000060 75 64 f9 3c 21 66 b3 bc 87 50 e8 bc ba 3f 2e bd
       0.03044341 -0.021899285 -0.02835871 -0.042541243
000070 d2 27 88 3d e4 71 ec bc 06 1c 8f 3d 92 ce a9 3d
       0.0664822 -0.028862901 0.06987767 0.08291353
000080 82 f8 b3 3c 76 cb 9f bc c6 1d ea 3c 8e d9 ba bc
       0.021969084 -0.019506197 0.02857865 -0.022808816
000090 38 6f 1d 3c a3 8d 2b 3d 52 9a 82 bc 18 3b 8c 3d
       0.009609036 0.041883122 -0.015942726 0.06847209
0000a0 c2 c4 90 3d 73 c3 d7 bc 6d 49 c3 3c 54 6c f1 bc
       0.070687786 -0.026338315 0.023838723 -0.0294706
0000b0 70 fd ea bb 8b 58 20 3c 3d d4 fc 3b 7d 5c 81 bd
       -0.0071713254 0.009786735 0.0077157305 -0.06316469
0000c0 11 da 1a bc 32 86 4e 3d c9 07 dc 3a 2c 30 32 bd
       -0.009451405 0.050420947 0.0016786988 -0.04350297
0000d0 fd 94 f4 bc f5 ff 05 bd ee ab d3 bc 39 2a fb bc
       -0.0298562 -0.032714803 -0.025838818 -0.030659782
0000e0 d2 84 a1 bc 99 fb 78 3d b6 65 8a bc 6e f1 bf bb
       -0.019716654 0.060786817 -0.016894203 -0.005857638
0000f0 e9 6f 02 bd 09 cd 7e bd 9c 3c 49 bd e8 10 13 3d
       -0.031845007 -0.062207256 -0.049130067 0.035904795
000100 d7 ff 57 3b 16 e2 d5 bb 08 06 3d bc 2a d4 a3 bc
       0.003295889 -0.0065271957 -0.0115370825 -0.019998629
000110 fe f5 23 bd de e3 8a ba 59 38 13 3d 38 69 aa 3d
       -0.04002952 -0.0010596474 0.03594241 0.0832085
000120 8b 58 62 3d 8d d9 7e 3d 8c 6b 54 3d 1b fc 78 bc
       0.055260222 0.06221919 0.051860377 -0.015196825
000130 ab ac bf bc 24 ad d2 bb d0 ba cd 3c 90 a2 49 3d
       -0.023397764 -0.0064293314 0.025113493 0.049227297
000140 df fc 79 bd b2 91 82 bc 2a b5 3b bd a2 85 d5 bc
       -0.061032172 -0.015938614 -0.04582707 -0.026064698
000150 4b fb ce bb a5 6d a5 bb 98 44 98 3c 68 7b 0f bd
       -0.0063165776 -0.005048471 0.018587396 -0.0350298
000160 e9 6d 9d 3d f1 4f 54 3d b4 d7 39 3d 38 13 44 bd
       0.07686979 0.05183405 0.045371726 -0.04786989
000170 78 1b ff bc 47 f2 0e 3c 77 98 89 3b ca 25 66 3d
       -0.031141028 0.008724756 0.0041990834 0.056188382
000180 97 97 c8 3b 6c 41 0f bd 43 dc 32 bd 71 44 43 bc
       0.0061215865 -0.0349745 -0.04366709 -0.011918173
000190 41 fd 65 3d 5b 83 1a 3d f7 56 1a 3d db eb 3f 3d
       0.056149725 0.037722927 0.037680592 0.04685579
0001a0 33 9f fe bb 76 db 59 3d d3 2c 4e 3c 6b 31 3b 3c
       -0.007770443 0.05318781 0.012583929 0.011425356
0001b0 43 48 81 38 23 1e 3e bd 46 78 00 3d 2c 9b 36 3c
       6.164659e-05 -0.04641546 0.0313647 0.011145394
0001c0 2b ee 36 3d 6f 70 aa 3c 9d 0c c6 bb 49 90 25 bd
       0.04466073 0.020805566 -0.006043984 -0.040420804
0001d0 18 0a 46 3d 1e a2 9d bc 2d c6 64 3d 32 c5 dd bc
       0.04834947 -0.019242343 0.055853058 -0.02707157
0001e0 0d 3b b0 bc 9c 58 ce bc fd d0 93 3b 62 6c 7e 3d
       -0.021512533 -0.025188737 0.0045109973 0.06211508
0001f0 76 d1 f4 3c c2 23 e1 bc 2f a3 05 3d 9e 6d b7 bc
       0.029885035 -0.027482871 0.032626327 -0.022391137
000200 a3 72 1e bd b5 fb 67 3d 05 29 ff bc 91 8c 6c 3b
       -0.038683545 0.05663653 -0.03114749 0.0036094526
000210 42 99 ff 3c 00 5d 5e bd 68 b9 b4 3c cc 0d 0b 3b
       0.031201009 -0.05428791 0.022061065 0.002121794
000220 d5 28 9e 3c 86 df 63 bd 2e 6e 72 bc df cc 16 bd
       0.01930658 -0.05563309 -0.014796777 -0.036816474
000230 e2 54 93 3c 99 94 4c bd 90 e8 f0 bc ed 40 2e 3d
       0.017984811 -0.0499464 -0.02940777 0.042542387
000240 21 8a 83 3d ab b9 cf bc cc 43 8a 3d 92 0a 04 bc
       0.064228304 -0.025357088 0.067512125 -0.008059161
000250 c1 6c c5 bc 54 7e 11 bd 31 41 82 bd a1 1a 12 bc
       -0.02409971 -0.035520867 -0.063600905 -0.008917482
000260 af 02 27 bd fb 9b 1e bd 1a db 51 bd a3 16 49 bd
       -0.040774044 -0.038722973 -0.051234342 -0.049093854
000270 16 2d 69 bc e4 e1 fb bc b9 8d 8a bc 97 2a 58 3d
       -0.014231941 -0.030747361 -0.016913282 0.05277499
000280 b3 05 63 3d 1d e0 05 bb 2a 67 33 3d e2 3f ba 3b
       0.055425357 -0.0020427771 0.043799557 0.005683885
000290 a6 a9 69 bb f1 01 51 3d a2 dc 86 3c eb be 17 bd
       -0.0035654097 0.051027242 0.016462628 -0.037047308
0002a0 87 fc 68 bd a4 ad 72 3d 6c 45 0d bd 15 d5 38 3d
       -0.056881454 0.059247628 -0.034490034 0.045125086
0002b0 09 49 20 3d fa 1a 70 3d c0 b7 a2 bb 8f d1 1f 3d
       0.03913215 0.058619477 -0.0049657524 0.03901821
0002c0 42 13 9f 3b 76 8e 12 bc cf 57 87 3d fb 94 88 bb
       0.0048545906 -0.008945098 0.06608545 -0.0041681505
0002d0 82 79 37 3c da 5a 28 bd 9f b0 a4 3c 23 49 43 3d
       0.011198403 -0.041102268 0.02010375 0.04767717
0002e0 0e fc 09 bd a3 89 f0 bc 2d d0 3d 3d 37 5d 32 bc
       -0.033687644 -0.029362505 0.04634111 -0.010886482
0002f0 55 71 86 3d e3 9a 4d bc 8c c0 39 bd 6f 06 cd 3c
       0.06564585 -0.012549135 -0.045349643 0.025027482
000300 8c 18 a4 bc 52 6e 2e 3d 08 e8 5b 3d 03 ad 8e bc
       -0.020031236 0.04258568 0.05368808 -0.017416483
000310 f0 25 26 3d da ed ab 3c 1c a9 09 bd 93 02 84 3d
       0.040563524 0.02098744 -0.03360854 0.064458035
000320 c2 f6 82 3d cd 6e 69 3d dc 0c 48 3d 1f b5 14 bd
       0.063947216 0.056990433 0.04884039 -0.036305543
000330 dc 5e 91 3d 35 92 37 bd db 8d 3f 3d 06 58 1a bd
       0.07098171 -0.04481717 0.046766143 -0.037681602
000340 d2 3d f5 3c 5e 90 aa bc ac 76 a8 bc cc 49 31 bd
       0.029936705 -0.020820793 -0.0205644 -0.04328327
000350 94 57 3b bc f2 95 20 3d cb fe 92 39 c3 2f 78 3d
       -0.0114344545 0.0392055 0.00028037126 0.060592424
000360 26 a8 32 bc c7 bb 93 bc 3c 4b da 3b 34 fc 86 bc
       -0.0109043475 -0.018033875 0.0066618007 -0.016477682
000370 b4 ec 17 bd 30 b8 1c bd d1 da 62 bd e3 4d 8a 3d
       -0.037090972 -0.038261592 -0.05538446 0.06753137
000380 42 20 83 3d 99 8a 17 3d 3d 07 bf 3c ac 1a 58 3d
       0.06402637 0.03699741 0.023318881 0.05275981
000390 0b 28 8a 3d ff 2a c2 3c 49 d3 84 3d 20 e1 85 3d
       0.06745919 0.023702143 0.06485612 0.0653708
0003a0 be c4 9c bc 02 ef 76 bc 81 d4 0b bd f3 2d b2 bb
       -0.019136783 -0.015071632 -0.034138206 -0.0054376065
0003b0 8f 5d 4c 3d c1 dc 14 bd 79 5a 4b 3d 5b d0 0b bd
       0.049893912 -0.03634334 0.04964683 -0.03413425
0003c0 8c c3 2a 3c 53 38 74 bc 04 6e 5b 3d a6 ef 2e 3c
       0.010422599 -0.014906007 0.053571716 0.010677254
0003d0 91 9f 34 bc 2d 0a 1f bc 42 7f 3e bd 33 1d 02 bd
       -0.011024372 -0.009707016 -0.04650808 -0.031766128
0003e0 28 e1 bd 3a 01 e7 2b bb 13 22 28 3d b5 5c 0b bd
       0.0014486657 -0.0026230218 0.04104812 -0.03402396
0003f0 20 2a d5 bc 61 08 2d bd 8a 8c 9c bc 1c 35 cc bc
       -0.026021063 -0.04224432 -0.019109983 -0.024927668

fc3.weight f4 [6, 256]
000000 01 ef a6 3d d2 b3 d7 bd 50 45 ca bd 0c 58 bc 3c
       0.08151055 -0.10532345 -0.098765016 0.022991203
000010 71 7f 02 be 4d 2d 8a bd f8 3e ce 3d 5b 63 8e 3d
       -0.12743928 -0.06746922 0.10070604 0.06952544
000020 3e 37 c6 bc 03 f7 6f bd 7f 1a ae bb f0 18 a9 3d
       -0.024196263 -0.058585178 -0.005313217 0.082567096
000030 bb 0b b1 bd a6 82 de 3c d3 72 a6 bd 9b 89 72 3c
       -0.086448155 0.027161907 -0.0812737 0.0148033155
000040 97 70 8f bd 39 96 cd bd 50 53 6c bc 8d c7 7f 3d
       -0.07003897 -0.10038418 -0.01442416 0.062446166
000050 57 63 ae bd e8 7c 94 bd 2d c8 0f bd 0a e4 b3 3d
       -0.08515041 -0.072503865 -0.035103012 0.087837294
000060 2a 6a 92 3d 0a 90 30 bb 7e 39 81 bd 93 7f 28 bd
       0.071491554 -0.0026941323 -0.06309794 -0.04113729
000070 20 52 c6 3c a4 63 d4 bd f4 a2 c1 3c fb 83 f9 3c
       0.024209082 -0.103705674 0.023637272 0.030458441
000080 7b b5 18 3d 7f f5 ae bc 8f 6d d7 3d ac 42 e2 3c
       0.03728245 -0.021357296 0.105189435 0.027619682
000090 f0 31 33 3d 3f d8 59 bd 11 2d 74 bd a7 e3 b8 3d
       0.043748796 -0.053184744 -0.05961329 0.09027796
0000a0 3f c7 0d bd d3 62 f9 3c 3d 83 9c bd cb c3 ac 3c
       -0.034613844 0.03044263 -0.07642219 0.021089455
0000b0 f2 3a 8c 3d 23 dd 9b bd d7 92 9f 3d 7e 80 02 bd
       0.068471804 -0.07610538 0.07791679 -0.03186082
0000c0 10 83 2e bc 7f 7a c9 bd 0f 1b 63 bc 80 b5 51 bc
       -0.010651365 -0.098378174 -0.013861432 -0.012799621
0000d0 28 b8 de bd c9 38 a9 bd 16 34 b3 3d 43 a0 cb 3d
       -0.10874969 -0.08262784 0.08750169 0.09942677
0000e0 d2 18 d8 3c 5d cb aa bd 82 78 a3 3c b4 69 41 bd
       0.026379023 -0.0833957 0.019954924 -0.047219947
0000f0 6f c8 8a bd bc 37 fc 3c dc 49 13 bd c1 f6 a3 3d
       -0.06776511 0.030788295 -0.03595911 0.08006049
000100 1c 98 ea bc 9d 67 23 bd 38 9b 64 3d e2 a8 92 3c
       -0.028636985 -0.039893735 0.05581209 0.017902795
000110 81 18 2c bd 18 9a 92 3d a4 5d 9a 3d 8f 68 69 3d
       -0.042015556 0.07158297 0.07537392 0.05698448
000120 7b 7a e8 bd 1a b5 5f 3c 69 bf 21 bd 6f 38 f0 bd
       -0.11351486 0.013654018 -0.039489184 -0.11729514
000130 44 30 79 bd ea 53 da bd c0 6e 99 3b 6a d0 c3 bc
       -0.060837045 -0.106605366 0.004682392 -0.02390309
000140 c7 f5 ad bd 96 d2 82 3b 5a db b9 bd 98 f6 b4 3d
       -0.08494144 0.003992389 -0.09075041 0.088360965
000150 c4 ce 1f 3c 0e 14 f2 3d 34 d8 bd bd a5 b9 da 3b
       0.009753887 0.118202314 -0.09269753 0.0066749626
000160 8b fd a1 3a 2b 46 87 bd 22 4e ab bd 77 6f c2 3c
       0.0012358887 -0.0660518 -0.08364512 0.023734791
000170 72 7c a4 bd ed 9e 06 3d dd 96 b6 3c 94 17 64 3b
       -0.080315486 0.032866407 0.022288734 0.0034804093
000180 ad 3f b4 3d 6e 90 cd 3d 79 6e 4a 3c 82 b8 13 3d
       0.08801208 0.100373134 0.01235544 0.036064632
000190 6e 99 61 3d 03 6b b0 bd 00 c6 17 bd 13 dc 98 3d
       0.055077963 -0.08614161 -0.037054062 0.07463851
0001a0 7b 2e 7b 3d 6e a0 1c 3d d3 58 4a bd ba 6c 70 bd
       0.061323624 0.038238935 -0.049401116 -0.05869744
0001b0 81 86 25 3d 40 2f b1 bc 99 42 81 3d e8 c4 91 3d
       0.040411476 -0.021628976 0.063115306 0.07117635
0001c0 fd ba 92 bc c0 a7 e2 3d d0 27 b7 3d 4c c8 9e bd
       -0.017911429 0.11067152 0.089431405 -0.07753047
0001d0 cf a0 58 3d fc dc 6b 3d 88 f2 b9 3d 6d 4d 4a 3d
       0.052887734 0.057583794 0.09079462 0.049390245
0001e0 2e 38 c9 bd c5 44 6f 3d ea 05 85 bd 6a 77 24 bc
       -0.098251686 0.058415193 -0.06495269 -0.010038236
0001f0 58 23 ce 3c f8 ac ab 3d 5c 12 f4 3c ba a5 77 bd
       0.025163338 0.083826005 0.02979391 -0.060460784
000200 52 c4 dd 3d f4 55 99 bd 6e a5 e3 3c e7 ad bb 3c
       0.10828461 -0.074870974 0.027788844 0.022910072
000210 58 69 2f bd d8 6a 48 3c 27 c2 b8 3d e0 07 52 bc
       -0.042825073 0.012232505 0.090214066 -0.01281926
000220 c0 e1 0b bd b0 e2 bd 3d ef 4e e5 bb 33 69 18 bd
       -0.03415084 0.09271753 -0.006997935 -0.0372097
000230 bd e6 2e bd ba 1a 5c 3d eb 75 65 bd 5d ce b2 3d
       -0.042700518 0.053736426 -0.05602066 0.08730767
000240 80 6e bf bd ba fd b5 3d 00 60 75 3d 65 30 0a 3d
       -0.09347248 0.08886285 0.059906006 0.03373756
000250 ad 9e 4c 3d f0 2e d8 3d 3c 13 fc bc f9 0f 8d 3d
       0.049956013 0.105558276 -0.03077089 0.06887812
000260 50 ae a9 bd 04 67 7e bd 8b 51 48 bd d3 d7 06 3d
       -0.082852006 -0.062109962 -0.04890589 0.03292067
000270 93 50 75 3d ad e1 ac bd b0 e9 19 bd f2 c3 44 3d
       0.059891295 -0.08441482 -0.037576377 0.04803843
000280 60 97 62 bd b6 7d 11 bd 6c 3a 8b 3d ba 60 3e bd
       -0.055320144 -0.035520278 0.067982525 -0.046478964
000290 37 56 16 be c3 fc 1e bd 39 f3 d8 3d b6 23 8b bd
       -0.14681326 -0.03881527 0.10593266 -0.06793921
0002a0 1a 79 52 bd db 1c c3 3d 4d fb 85 bd 08 e8 97 3d
       -0.051385023 0.09526988 -0.065420724 0.07417303
0002b0 08 94 b4 3d 3a e3 c2 bd 04 74 f6 3c 03 c4 a3 3d
       0.08817297 -0.09515996 0.030084617 0.07996371
0002c0 2b 04 8f 3d d0 c6 87 ba 5b 01 86 bd 2c 86 d6 3c
       0.06983217 -0.0010358933 -0.06543227 0.026187025
0002d0 73 2a e3 bd 27 d1 f8 bd 92 51 ff bb 7d cf 8d 3d
       -0.11092081 -0.12149268 -0.0077917064 0.06924341
0002e0 21 64 be bd 94 10 01 bd 40 95 a1 3d a7 e1 6b bb
       -0.09296442 -0.03150995 0.07889795 -0.0035992654
0002f0 34 16 25 3d b4 58 7a bd 1c f9 76 3d e7 01 2f bd
       0.040304378 -0.06111975 0.060296163 -0.042726424
000300 a7 21 4d 3d 77 3b 81 3d cf a1 01 3d c1 b7 1b bd
       0.05008092 0.0631017 0.031648453 -0.03801704
000310 46 26 18 bd b7 e6 5c 3d e9 31 9a 3d 2b 6c 4c 3d
       -0.037145875 0.053930964 0.07529051 0.049907845
000320 3e f5 20 bd d9 61 8c ba c1 17 73 3c 8f 36 ba bd
       -0.03929638 -0.0010710313 0.014837206 -0.090924375
000330 21 69 c7 bc 90 bc 92 bd 99 f0 8d 3d 49 a1 5c 3d
       -0.024342122 -0.07164872 0.06930656 0.05386475
000340 7e 97 ac 3c 0e 68 f4 3c 3e 31 10 3c dc 56 98 bd
       0.02106833 0.029834773 0.008800803 -0.07438442
000350 37 2b f4 3d e1 d9 aa bd 77 9c b3 bc 71 cd b2 3d
       0.11922305 -0.08342338 -0.021925194 0.08730591
000360 04 0f a2 ba e4 5b f0 3c 83 af 1d bd c5 ce 47 bd
       -0.0012364094 0.029340692 -0.03849746 -0.048781175
000370 2a 7b 79 3d e6 68 3f bd e2 3b 0f be af 7e f6 3c
       0.060908474 -0.0467309 -0.13987687 0.030089704
000380 e4 04 ce bc 3b 56 c7 bc 2a 8f 2c bd cf 7c d9 3d
       -0.025148816 -0.02433311 -0.04212872 0.106195085
000390 56 c4 a4 3d af 93 35 3d 7f 5a 0f 3d a7 80 b9 3d
       0.080452606 0.044330295 0.034998413 0.090577416
0003a0 7a 8f ff bc d5 ec 44 3d 6c 00 c3 bd f3 35 34 bd
       -0.031196345 0.048077423 -0.09521565 -0.043996762
0003b0 d1 96 48 bd ab 19 09 3c 6f 42 29 3d 17 4b ce 3d
       -0.048971955 0.008367936 0.04132312 0.10072916
0003c0 88 9c ea bd 3c e3 70 bd 34 05 97 3d 36 76 a3 3b
       -0.11455637 -0.058810458 0.07374039 0.004988457
0003d0 92 f0 84 3d cd bf 76 bd 17 6a 11 bc 6e 65 55 bd
       0.06491198 -0.06024151 -0.008875391 -0.052098684
0003e0 c7 93 06 bd e1 ca 94 3d ab 1b 30 3d f0 2c 85 3a
       -0.032855775 0.072652586 0.042995136 0.0010160487
0003f0 ca c1 c0 bd 37 b9 ce 3d 56 05 36 bd e7 b8 18 bc
       -0.09411962 0.10093921 -0.044438682 -0.009321428

fc3.bias f4 [6]
000000 0f da 74 3d 51 f1 35 3c 02 6d d3 bc 2c 71 58 3d
       0.05977827 0.011104898 -0.025808815 0.052842304
000010 f8 01 ee 3c 7c 5e a3 3d
       0.029053673 0.07977006
