rubiks_dqn_policy_net_88199.pth (torch, 421125 bytes, 6 tensors)

fc1.weight f4 [256, 144]
000000 ec d6 4c be 7a 25 27 3e 28 c8 95 be 2f 18 bb 3d
       -0.20003861 0.1632289 -0.2925427 0.09135472
000010 5e f4 0a bd f5 59 20 3e 0b b2 74 3d 45 e3 f8 3d
       -0.033924453 0.15659316 0.059740108 0.12152723
000020 3c 24 db bd 1c 4e b1 be 12 e0 f3 3e b2 75 ae 3e
       -0.107002705 -0.34629905 0.4763189 0.3407417
000030 23 86 6d 3f 87 fb a3 be 06 21 d6 bd 45 ef 9a be
       0.927828 -0.32027838 -0.104555175 -0.30260673
000040 a3 0d 01 bf b8 64 32 3e 65 25 be be fd c2 73 be
       -0.50411433 0.17421234 -0.37137905 -0.23804851
000050 19 75 87 3e 7b 8a 4d 3d f9 86 f8 be 7a 50 e4 3e
       0.26456526 0.050180893 -0.48540476 0.4459265
000060 36 e1 64 3d 44 33 5f bd a1 b4 6a 3d 4b 68 b8 bc
       0.05587884 -0.05449225 0.057301167 -0.022510668
000070 c6 b5 96 be 48 83 04 bf c6 03 62 be d1 88 b9 3d
       -0.29435557 -0.5176282 -0.22071752 0.09059299
000080 c2 f7 17 3e c9 91 e4 3e b5 f9 88 3e 4c 0b 2d bd
       0.14840606 0.44642475 0.2675301 -0.0422471
000090 fd aa 9c be c6 cc 29 be f0 6c 24 be 4d 86 dd bd
       -0.30599204 -0.16582021 -0.16057181 -0.108166315
0000a0 d5 53 92 3e 73 40 a3 be ed ec d7 be 7d 9f a9 be
       0.28579584 -0.31885108 -0.42172948 -0.33129492
0000b0 b2 a6 86 bd d0 df 26 bd 12 67 a9 3b da ce 9a bf
       -0.06574763 -0.040740788 0.0051697576 -1.2094376
0000c0 03 58 8b 3d f3 73 07 3e 3c 90 76 be a8 34 62 be
       0.06803896 0.13227825 -0.24078459 -0.220904
0000d0 40 75 21 be d7 74 aa be c0 c1 c7 bb 1f 59 9b bd
       -0.15767384 -0.33292267 -0.006096095 -0.07585358
0000e0 bc a9 eb bd fc 73 56 be 0b 15 fa be 3d 88 0a be
       -0.11506984 -0.20942682 -0.4884418 -0.13528533
0000f0 cc b3 38 3e a5 74 93 be 60 a6 b9 3e 23 36 a4 3e
       0.18037337 -0.2879993 0.36259747 0.32072553
000100 61 ee e7 3d 17 b2 86 3d c8 51 4d 3f 44 16 a4 3e
       0.11324764 0.06576937 0.80202913 0.32048237
000110 6e 04 74 3e c6 22 a5 bc 5d 34 6b bd 75 78 69 bd
       0.23829815 -0.020158183 -0.057422984 -0.056999642
000120 aa b5 a1 3d 6a f0 8e be b4 00 9c 3e 91 fc 44 3e
       0.07895978 -0.27917796 0.30469286 0.19236971
000130 17 88 63 3d a9 73 51 be 63 b9 1a bd b3 ab 2e 3e
       0.055549707 -0.20454277 -0.037774455 0.17057686
000140 a8 cf 2f be 6a 00 90 bd 3f db 42 3f 4f 27 77 be
       -0.17169058 -0.07031329 0.76115793 -0.24136089
000150 72 71 a3 be 36 85 81 3d 95 e8 e9 bd 7a 0a 61 be
       -0.3192249 0.06324236 -0.114213146 -0.21976653
000160 ba 79 e8 3c 69 ad 0a 3e 63 37 03 3e 26 06 35 be
       0.028378356 0.13542713 0.12814097 -0.17678127
000170 83 a5 9a be 3b 7a 8f 3c 7c 2a b1 3e e9 6a ed 3d
       -0.302044 0.017514339 0.34602726 0.11592657
000180 30 a8 b3 bc 5e 7a 1d be 92 44 ca be 07 31 8c 3d
       -0.021930784 -0.1537871 -0.3950544 0.06845289
000190 7c 04 3e 3e 17 e8 3c be 00 30 3f bd f1 b5 d0 be
       0.18556398 -0.1844791 -0.046676636 -0.4076381
0001a0 56 3b aa 3d 2a 2d 6a be 32 31 ba be b0 4b 0a 3e
       0.08312099 -0.22868791 -0.36365658 0.13505435
0001b0 10 28 1e bf 2a bd d8 3e ec b5 ac 3e 21 6a e2 bd
       -0.6177988 0.4233182 0.33732545 -0.11055399
0001c0 87 a9 dc bc 6e 92 16 be 78 c3 29 be 48 e3 9a 3e
       -0.026936306 -0.14704296 -0.16578472 0.30251527
0001d0 ad 05 ec 3d d8 43 32 3d d2 33 00 be 7a 98 80 3e
       0.1152452 0.043521732 -0.12519768 0.2511633
0001e0 ff 2f 87 3d 31 44 e4 3e 42 4a e0 bc b7 41 90 be
       0.066009514 0.44583276 -0.027379159 -0.28175136
0001f0 ec c0 7b 3d 81 6e 8a 3e be a4 a0 bd 4c 33 ee 3c
       0.06146328 0.27037433 -0.07843922 0.029077195
000200 fc 8b 3a be 76 0d 94 be 6f 69 1b bf 1a 67 d5 bd
       -0.18217462 -0.2891652 -0.60707754 -0.10420056
000210 a3 b4 65 3e c0 9c 89 bf ff 69 22 be 5d 85 9f 3d
       0.22432189 -1.0750961 -0.15860747 0.07789109
000220 7b 75 9b bf 83 11 8d 3e 8a 81 59 3e ba f8 65 bf
       -1.2145227 0.27552423 0.21240821 -0.8983265
000230 0a f4 5e 3d 4d 72 02 be bb 11 14 3e 06 6f b0 be
       0.054431953 -0.12738915 0.14459889 -0.34459704
000240 12 a1 cc be 17 06 fe bd d4 f9 83 be ce 84 02 bf
       -0.39966637 -0.12403505 -0.2577654 -0.50983894
000250 48 e4 d4 be d9 72 86 3e 9c c8 82 3d 06 a2 00 bf
       -0.41580415 0.26259497 0.063859195 -0.5024723
000260 98 63 9a bf 60 4a 05 3d b4 61 26 3e 4d 5f b9 3e
       -1.2061644 0.032541633 0.16248208 0.3620552
000270 bc 0f f0 bc cd 26 e9 bd 6c b0 05 bf 6d 4e b8 be
       -0.029304378 -0.11384354 -0.52222323 -0.35997334
000280 e9 90 8e be 72 e8 5d 3e c0 3d 5b 3d 1a 25 f1 3d
       -0.27844933 0.21670702 0.053525686 0.11774655
000290 9b 0e 66 3e 52 60 94 3d 82 a9 5d bd 33 55 d5 bc
       0.22466509 0.07244934 -0.054116733 -0.026041603
0002a0 83 e2 3c 3d 6a 7c 35 3e 1b d3 99 3e 29 cd 79 be
       0.046114456 0.17723241 0.30043873 -0.24394669
0002b0 ae 41 2a 3d 00 f3 08 3e 97 d4 7a be 47 4a bc bd
       0.041566543 0.13373947 -0.24495159 -0.09193855
0002c0 97 84 5f bf b9 b4 83 3e 39 bb 69 3e b0 bf 07 bf
       -0.8731169 0.25723818 0.22825326 -0.53026867
0002d0 70 18 6f 3e 36 20 0e be 64 92 1b 3e 34 6a f5 bd
       0.23349166 -0.13879475 0.15192562 -0.11983147
0002e0 5a e7 c3 be fa 50 29 bd 57 73 d4 be 7c 28 81 bc
       -0.38262445 -0.04133699 -0.41494247 -0.015766375
0002f0 fa b5 b8 bd 96 a8 c0 3c c5 40 32 be b0 c7 91 bd
       -0.09019084 0.023517888 -0.1740752 -0.071181655
000300 10 20 82 bc 11 9e a5 3e fb 15 2d 3e 61 62 6b 3d
       -0.01588443 0.32347158 0.16902916 0.05746687
000310 02 b4 0b be 83 b0 c8 be e2 1c 87 bd 51 16 dc 3d
       -0.13642886 -0.39197168 -0.06597306 0.10746444
000320 8a 49 76 bd e2 57 15 bd 11 b4 d0 be 8d a9 11 bf
       -0.060128726 -0.036460765 -0.4076238 -0.5689934
000330 04 10 1b 3f 3b 9e 06 bf b2 ea 99 3e 58 00 5a 3e
       0.6057131 -0.5258519 0.3006187 0.21289194
000340 fd a2 31 3d f2 ce 10 be a2 cc 40 bd 44 49 d3 3c
       0.04336833 -0.14141443 -0.047070153 0.025791772
000350 c2 2e c0 bc 17 7c 8e bd 62 10 b0 be f2 30 b1 3c
       -0.023459796 -0.06957262 -0.343875 0.021629784
000360 bb 99 ba bc 45 89 16 bf 95 a6 cb 3e 95 b6 09 bf
       -0.022778383 -0.58803207 0.3977553 -0.53794223
000370 82 75 a7 bd b6 7a 2f 3e 3f 0e 9e 3d 01 c2 be 3e
       -0.0817671 0.17136654 0.07717561 0.37257388
000380 70 50 8d 3d 26 dc 85 3e 82 c5 32 3c 00 24 33 bf
       0.06900108 0.26144522 0.010911347 -0.69976807
000390 82 22 d4 be b5 14 63 be 65 30 03 be e2 03 b5 bd
       -0.41432577 -0.22175868 -0.1281143 -0.08838631
0003a0 ed e1 80 3e 7d 50 8a 3e 9b a9 22 3e 91 3b 26 be
       0.25172368 0.27014533 0.15885012 -0.1623366
0003b0 59 59 77 bd 20 9d 21 3c 3c e5 94 bd b7 92 d8 bf
       -0.060387943 0.009864122 -0.072702855 -1.6919774
0003c0 28 85 75 3d 25 d8 fd bd 72 a3 42 be e2 67 63 bd
       0.05994144 -0.12394742 -0.19007662 -0.055518992
0003d0 fa 89 df 3d 8c 65 27 3d 8b d4 03 bd 75 1e 50 bf
       0.10914989 0.040868327 -0.03218512 -0.81296474
0003e0 7c 45 ca be c4 f5 b4 be 80 11 8c be 71 23 dd 3e
       -0.39506137 -0.35343754 -0.273571 0.43191102
0003f0 d5 a1 aa 3e 43 c0 79 bc 51 13 a5 be f6 3e 01 be
       0.33326593 -0.015243593 -0.322413 -0.12621674

fc1.bias f4 [256]
000000 b6 da c7 bd d4 af 9c be bc 9d f6 be fa 32 e7 bd
       -0.09758513 -0.30602896 -0.48167217 -0.1128902
000010 d3 b1 a0 be ff c8 c5 be 37 d8 ac be db 74 6d be
       -0.3138567 -0.3862991 -0.3375871 -0.23189108
000020 8d 1b 3a be c4 e9 b3 be cd f4 76 be e9 3d f2 be
       -0.18174572 -0.35139287 -0.24116822 -0.4731286
000030 60 69 b4 be 95 5d 8e be 10 2f 6c be aa 83 c0 bd
       -0.35236645 -0.27805772 -0.23064828 -0.09400113
000040 40 66 45 be 64 f6 a2 be ba 33 45 3e 4f f9 82 be
       -0.19277287 -0.31828606 0.19258013 -0.25580832
000050 0f e5 f7 3d 0d 85 66 be 65 ad 95 bd 48 36 e7 bd
       0.12104236 -0.22511692 -0.07308463 -0.1128965
000060 46 6d f6 bd 9c 7d 0b be ff 57 8e be 28 5d b2 be
       -0.12032561 -0.13622135 -0.2780151 -0.34836698
000070 ae 02 6a be 08 12 fd bd 2f c5 ac be 29 66 ca be
       -0.22852585 -0.12356955 -0.3374419 -0.39531067
000080 6b 74 98 be 4d 95 73 be 6e 8e ae be cf 8b 0e 3d
       -0.2977632 -0.23787422 -0.3409304 0.0348013
000090 9a 97 e2 bd bc ca 07 be 74 81 d7 be 2a 86 9f be
       -0.11064072 -0.13260931 -0.42090952 -0.31157047
0000a0 51 92 83 be 9f 03 23 3b 42 0e be bc 9d 1c b3 be
       -0.25697568 0.0024873985 -0.023200158 -0.34982768
0000b0 e6 58 a0 be 7b 49 86 be 1b b2 62 be 9f af 99 be
       -0.31317824 -0.26227936 -0.22138254 -0.300168
0000c0 58 ed 8b be 63 39 c7 be 0f 89 c3 bd 68 90 c3 bd
       -0.27329516 -0.3891097 -0.09547626 -0.09549028
0000d0 6b 35 94 be af f8 af be b9 25 8c be 64 88 a1 be
       -0.28947005 -0.34369418 -0.2737253 -0.3154937
0000e0 b5 24 62 be 25 27 85 be e9 49 94 be 23 ee 6b be
       -0.22084315 -0.26006427 -0.2896264 -0.2304006
0000f0 6b 1e 5c be 46 bb be be 0a 61 32 be 2c f8 b1 be
       -0.21495979 -0.37252253 -0.1741983 -0.34759653
000100 40 e2 cd be 47 ce 5a be 86 c1 10 be 04 d8 9d be
       -0.40211678 -0.21367751 -0.14136323 -0.3082887
000110 3c 90 a3 be 5b d7 94 be 03 7f a5 be 45 22 4a be
       -0.3194598 -0.29070553 -0.32323465 -0.19739635
000120 f0 ce a7 be e2 04 60 3c 26 2a 9a be 9d 5e bf be
       -0.32775068 0.013673039 -0.30110282 -0.37376872
000130 73 ca 68 be 15 a4 73 be 0d e6 5a be 45 92 f4 bd
       -0.22733478 -0.23793061 -0.2137682 -0.11941961
000140 1b 8f d4 bd 0a 09 82 3e df d4 89 bc ee 43 c9 be
       -0.10378858 0.2539752 -0.016825138 -0.3930964
000150 b6 74 a1 be 69 ec 8c be 49 4f da be 63 75 c3 be
       -0.31534356 -0.27524117 -0.42638615 -0.38175496
000160 60 fb 96 3e df 69 15 be 36 f9 52 bd d0 bf 12 be
       0.2948866 -0.14591168 -0.051507197 -0.14330983
000170 c3 af 66 be 06 c2 09 be af ca b7 be 67 ae e8 be
       -0.22527985 -0.1345292 -0.35896823 -0.45445558
000180 c5 e5 9a be 8a 8e ca be 4f 5e 87 be 44 78 71 be
       -0.30253425 -0.39561874 -0.2643914 -0.23581034
000190 9b 6a 41 be a3 36 47 be 96 fd 62 be 61 12 99 bd
       -0.18888323 -0.19454436 -0.22167048 -0.074742086
0001a0 73 a6 9d be 03 27 64 be 96 54 33 be d6 f7 5a be
       -0.30791053 -0.22280507 -0.17512736 -0.21383604
0001b0 ec 92 1c bd 04 7c 2e be 43 3f 24 3e 14 87 9a be
       -0.038226053 -0.17039496 0.16039757 -0.3018118
0001c0 31 1c 0d be c9 94 a3 be 0d ea 8d be 8e 31 1e be
       -0.13780285 -0.31949452 -0.2771763 -0.15448591
0001d0 f0 5f 89 bd 44 29 87 be 24 62 84 3d b5 93 81 bd
       -0.06707752 -0.2639867 0.06464031 -0.06327001
0001e0 6c fa af be 2f c6 4d be 76 8f 81 be a3 a6 ab be
       -0.34370744 -0.20095132 -0.25304765 -0.3352557
0001f0 68 00 1c bd 52 df 2d bc cf 1d 82 be a9 f7 b7 be
       -0.038086325 -0.010612326 -0.25413367 -0.35931137
000200 a4 b4 ce bd 98 c4 2f be fc 51 c8 be b2 b2 67 be
       -0.10093048 -0.17164838 -0.3912505 -0.2262676
000210 8f a1 18 3d a8 25 52 be c1 bf 9c be b4 ab 82 be
       0.03726345 -0.20522177 -0.30615047 -0.25521624
000220 9b d1 94 be 0d 83 a8 be 05 e4 a5 be ba af 80 be
       -0.29066166 -0.32912484 -0.32400528 -0.2513407
000230 fc 45 bd 3e f2 55 87 be 6f fc 4a be ab 7e 45 be
       0.36967456 -0.2643276 -0.19822858 -0.19286601
000240 09 33 01 bf 16 00 32 be 4a ed 78 be 8c d8 93 3d
       -0.504685 -0.17382845 -0.24309269 0.072190374
000250 cd a6 a0 be f0 86 a8 be f0 ef 87 be cb f7 9a be
       -0.3137726 -0.3291545 -0.26550245 -0.30267176
000260 37 ea a1 be a0 84 42 be 92 05 46 be bc 6f 91 be
       -0.31624004 -0.18995905 -0.19338062 -0.2840556
000270 92 da a7 be d9 99 94 3d f7 cf ac be d5 21 7b be
       -0.32783943 0.072559066 -0.33752415 -0.24524625
000280 ad b7 29 be b2 82 e0 3c 77 5b 8d be a4 77 c6 be
       -0.16573973 0.02740607 -0.27608845 -0.38763154
000290 4a d0 52 be 5a 90 59 be ec 5c d5 bd 25 c6 b2 be
       -0.20587268 -0.21246472 -0.10418114 -0.34916797
0002a0 1a 49 5a be c4 6d 93 be fa e0 4f be d8 79 a2 be
       -0.21316949 -0.28794682 -0.20300665 -0.31733584
0002b0 fa d6 31 be 68 e7 98 be cb 73 62 be 4e a2 85 be
       -0.17367163 -0.2986405 -0.22114484 -0.2610039
0002c0 16 af e4 be b8 5c a2 be 22 7d 20 be 63 7f aa be
       -0.4466483 -0.31711364 -0.15672734 -0.33300313
0002d0 92 dd 54 be eb 62 79 be 50 de 1f 3e 64 71 81 be
       -0.20787647 -0.2435414 0.15612149 -0.25281823
0002e0 72 0c 20 be bf b0 aa be 2b eb ca bd f1 12 8e be
       -0.15629748 -0.33337972 -0.09908136 -0.27748826
0002f0 e1 c6 fa bd 59 c0 14 be cc e7 c5 bd 73 2a 20 be
       -0.122449644 -0.145265 -0.09663352 -0.15641193
000300 64 42 9b bd 5c b8 8a bd 73 2b b7 be c8 87 83 be
       -0.075810224 -0.06773445 -0.35775337 -0.2568953
000310 2c d5 a9 bd ae 81 90 be 05 b2 76 be 35 5e 68 be
       -0.082926124 -0.28223938 -0.24091347 -0.22692187
000320 91 43 14 be eb 88 88 be 0a 20 9f be 92 6e d0 bd
       -0.144789 -0.2666696 -0.3107913 -0.101773396
000330 76 32 57 be c3 77 3a be ee 36 99 be 20 2c b8 be
       -0.21015343 -0.18209748 -0.2992472 -0.35971165
000340 5c 39 61 be 02 93 9b 3d 90 ec 51 be 77 e2 ad be
       -0.21994537 0.07596399 -0.20500398 -0.3396184
000350 38 db 8f be 3e 35 aa 3e 36 fb 43 be e7 e7 c3 be
       -0.28096938 0.33243746 -0.19138798 -0.38262865
000360 86 82 8a be 9a e9 d7 be eb 76 63 3d bf 58 68 bd
       -0.27052706 -0.4217041 0.05553333 -0.05672526
000370 ed 03 f0 3d 40 d1 71 be a5 27 2b be d0 31 03 be
       0.11719499 -0.23614979 -0.16714342 -0.1281197
000380 57 41 6f be 96 b6 6c be 2e b7 8c be 3f 94 8d be
       -0.23364769 -0.23116526 -0.27483505 -0.27652165
000390 d0 e7 4a bd f6 15 81 be 26 a9 70 be 36 a8 84 be
       -0.04953748 -0.25212067 -0.23502025 -0.25909585
0003a0 be d3 12 be b6 2b b9 be 46 47 c7 3d cb 51 7f be
       -0.14338586 -0.3616616 0.09730391 -0.24933545
0003b0 08 d4 ad be 89 a2 6d be 6b 23 83 be e4 75 6c be
       -0.3395083 -0.23206533 -0.2561296 -0.23091847
0003c0 e2 9f 4b 3c f4 d5 3d be 53 4f 5e be 67 41 12 be
       0.012428256 -0.18538648 -0.21709947 -0.14282762
0003d0 17 0e de bd c3 01 a5 be fb ea bb be 2a ee 48 be
       -0.10842531 -0.32227907 -0.36702713 -0.19622102
0003e0 21 aa 31 3d 77 8b a4 be 49 dc dd bc 6b 3d 39 bd
       0.04337514 -0.32137653 -0.02708258 -0.04522459
0003f0 77 6e 5d be 7f 32 7e be 6a 3b bd be 66 ba 83 be
       -0.2162417 -0.2482395 -0.36959392 -0.25728148

fc2.weight f4 [256, 256]
000000 3c fd c5 bd 4f 20 88 3e f6 58 c2 bd c0 48 38 3d
       -0.09667441 0.2658715 -0.09489624 0.044991255
000010 5b 60 cc 3d 86 83 a2 be da 89 b8 bd ba 09 37 be
       0.09979316 -0.3174097 -0.09010668 -0.17874804
000020 0b 41 5a bd 42 bd fd bd a0 3e 23 be d8 7b 91 bd
       -0.053284686 -0.12389614 -0.15941858 -0.071036994
000030 c5 4e 52 3d 17 ef 2a 3e 68 a3 85 3c 12 48 2d be
       0.05134465 0.16692768 0.01631327 -0.16922024
000040 d1 91 39 be 95 ee 43 3d f0 0a d4 be 0c 7a a5 be
       -0.18122031 0.04783495 -0.41414595 -0.32319677
000050 01 83 31 bd dc c3 15 bf d0 d4 9a 3d fd f8 f3 bd
       -0.043337826 -0.5850198 0.07560122 -0.11912725
000060 92 04 2d be 61 22 d7 be 14 48 93 3d 2d f6 a7 be
       -0.16896275 -0.42018417 0.07191482 -0.32805005
000070 e2 1a 8d bd 56 34 cb 3d 3d 40 7c 3c ed 4b 3b bc
       -0.06889893 0.09922092 0.015396175 -0.011431676
000080 83 33 17 bd 84 68 9e 3e 5d e6 4e be 1a 4c 63 bd
       -0.03691436 0.30939114 -0.20205064 -0.055492498
000090 71 61 fb be 03 9b 4c 3d 39 12 43 be 78 b1 84 be
       -0.4909778 0.04995252 -0.1904992 -0.25916648
0000a0 57 84 cc 3d d5 23 66 be 69 bb 13 be 2a 52 99 be
       0.09986179 -0.22474606 -0.1442696 -0.299455
0000b0 e4 06 ff bc bc 36 99 bd 5d a8 22 be ed 94 2e 3e
       -0.031131215 -0.07481143 -0.15884538 0.17048998
0000c0 88 fd ad 3d 31 f2 7d be 9d 6a ca be da 90 f0 bd
       0.08495623 -0.2479942 -0.39534464 -0.11746378
0000d0 e6 df 61 be a2 2f 08 3e 01 db 43 be 2d 9d f7 3c
       -0.22058067 0.1329942 -0.19126512 0.030226314
0000e0 7b 6c bd be 9b 64 17 3d c5 43 d9 bc b2 52 4d be
       -0.36996827 0.03696118 -0.026521573 -0.20051077
0000f0 6a a0 96 be b3 7a 1f bd e2 2e 87 bc cc 93 17 be
       -0.2941926 -0.038935374 -0.016501848 -0.14802474
000100 f8 67 14 be 78 96 0d 3d a2 9e d0 be 5d 52 2a bf
       -0.14492786 0.034567326 -0.40746027 -0.66531926
000110 c4 b9 c7 3e f9 bb c3 be ba 6f 39 bd 9e 6f 08 3f
       0.39008915 -0.3822935 -0.045272566 0.53295314
000120 e5 fb 94 3d a2 dd 13 bf 6f 95 d7 3b 8d bf 82 be
       0.072746076 -0.5776006 0.006579093 -0.25536767
000130 9a d9 e8 bd 1e 9b 21 bd 26 29 c7 bd 0f 8a 77 3e
       -0.11369629 -0.039454572 -0.09724645 0.24173759
000140 3d 24 c4 be aa 13 15 be 73 2e ad bd fd fd 34 3f
       -0.38308898 -0.14558282 -0.08456125 0.70700055
000150 f6 d3 28 3d 32 f8 85 3c 3b 25 83 be 2c 27 d0 3d
       0.041217767 0.0163537 -0.25614342 0.101637214
000160 7e 57 a4 be 5c 3c 8a 3e f4 c2 67 be d8 2f d9 bd
       -0.32098 0.26999176 -0.22632962 -0.106048286
000170 57 b4 e3 3d bf 4b 84 3a 5d 13 c3 3c e9 a8 bf 3d
       0.111183815 0.0010093375 0.023812944 0.09358389
000180 e6 31 ac bd e9 0d bb be f8 42 75 be 42 d1 fe bc
       -0.08407955 -0.3653405 -0.23951328 -0.031105641
000190 d0 59 83 bd 3d c1 c6 bd 2c df c1 bb b8 8d fb bd
       -0.06413615 -0.09704826 -0.0059164967 -0.1228289
0001a0 b2 73 8a bd 76 62 26 be 21 8b 83 be 20 b8 8e be
       -0.067603484 -0.16248497 -0.25692084 -0.2787485
0001b0 e0 e4 0d be 7f db d6 be 31 a5 2e 3c 99 e8 9d bd
       -0.1385684 -0.41964337 0.010659502 -0.0771038
0001c0 0d 1c 55 be 9f bb d8 bd 99 ea 81 bd ea 5e 24 3e
       -0.20811482 -0.10582661 -0.06343574 0.16051832
0001d0 0e 91 44 3d 1a b1 a3 be 78 f4 e3 3b 66 d6 87 be
       0.047989897 -0.31971055 0.006956633 -0.2653076
0001e0 28 9d ee 3d 56 be 04 3d 99 94 71 be 77 f5 a2 be
       0.11651069 0.03240808 -0.23591842 -0.318279
0001f0 5d 23 91 bd 30 1b e9 3e 3a 84 ec 3c c0 1b 3a 3e
       -0.07086823 0.45528555 0.028871644 0.18174648
000200 16 79 33 3e b2 c1 73 be 4f 26 ee 3d f3 1b f8 be
       0.1752666 -0.23804358 0.116284005 -0.48458824
000210 d2 6d b9 3c b8 61 09 3a 6c 77 4a be 15 f0 29 be
       0.022635374 0.00052406965 -0.19772118 -0.1659549
000220 24 49 8c 3e e9 49 32 3b 49 4b e8 3d d4 9b 37 be
       0.27399552 0.0027204698 0.113424845 -0.17930537
000230 02 ba 7f bd 65 bd be be b9 cd 56 bd 7d 14 54 be
       -0.06243325 -0.37253872 -0.052442286 -0.2071094
000240 16 bc 07 bf 77 e3 07 3d 06 9d 51 be 08 70 79 be
       -0.5302137 0.03317591 -0.20470056 -0.24359143
000250 d8 9d 91 be dc 96 24 3d ae 7e 80 be 56 90 b8 bd
       -0.28440738 0.040182933 -0.2509665 -0.09011905
000260 0d 46 1d bd d1 4d 54 3c 7b 48 55 be 6f b9 8d be
       -0.038396884 0.012958006 -0.2082843 -0.27680537
000270 0a e7 04 be 9d a6 1c be c5 d9 57 bd ed ec 82 3d
       -0.1297876 -0.15297933 -0.052697916 0.06392846
000280 e4 b7 dd bc 40 f0 52 3e d9 21 34 be 5f 9e 9f 3e
       -0.027065225 0.2059946 -0.17591037 0.31175515
000290 79 d9 29 be 34 5a cd be 90 60 07 be 6c 55 80 be
       -0.16586865 -0.40107882 -0.1322043 -0.25065172
0002a0 9a 23 67 be b9 34 65 3d dd 06 a2 bd 21 da f6 3d
       -0.22572175 0.055958483 -0.07911465 0.120533235
0002b0 03 71 f4 bc db da 8c bd 79 69 d6 3c a4 67 91 3d
       -0.029839044 -0.06877681 0.02617334 0.07099846
0002c0 f0 c9 0b be 1f 12 99 be 9a c4 14 bf 94 55 82 bc
       -0.13651252 -0.29896638 -0.5811249 -0.015909947
0002d0 6d dc 31 bd 03 14 b6 3d bf 2d 1d 3e 6d 31 ec 3c
       -0.043423105 0.08890536 0.15349482 0.028832162
0002e0 77 dd 1e 3e f2 88 cc be 4a 0f 17 be 75 62 ce be
       0.1551417 -0.3994823 -0.14751926 -0.40309492
0002f0 87 5b 3e 3c 20 b8 93 3d 8d 0f 1c bc 48 9d 34 be
       0.0116185015 0.072128534 -0.009525192 -0.17638123
000300 f9 44 ee bd 17 99 4d 3e 88 9d 90 be a9 89 12 bd
       -0.11634249 0.2007793 -0.28245187 -0.035775814
000310 8e 26 fb 3d 94 0f c0 3e 9f 83 f8 bd 05 7e e0 3c
       0.12263213 0.37511885 -0.1213448 0.02740384
000320 3a 12 dc be f8 21 a2 be ba 78 12 be c9 a1 23 bd
       -0.42982656 -0.3166654 -0.14303866 -0.039949212
000330 38 2b 46 3e 19 c9 96 be 71 59 f6 3d 34 51 01 bf
       0.19352424 -0.294503 0.12028778 -0.5051453
000340 1b 8f 03 be 05 1f b1 bd 9d 90 b5 bd 62 f3 23 3e
       -0.12847559 -0.08648495 -0.088654734 0.16010812
000350 55 83 8d be 5e 65 19 be a1 27 27 bd f5 67 b6 3e
       -0.2763926 -0.14980075 -0.040809277 0.35626188
000360 76 10 d2 bc 61 f5 5c bd cc de 06 bf f7 62 0f be
       -0.025642615 -0.05394495 -0.5268371 -0.14002596
000370 cc f8 9f be b0 de 86 be 5c a7 f1 3c f3 c6 29 3e
       -0.31244504 -0.26341772 0.029498748 0.165798
000380 5a fe 5c 3d c0 1e 92 bd e7 9d be bd bc 47 d4 be
       0.053953506 -0.07134771 -0.09307461 -0.4146098
000390 71 46 75 bd 05 24 a4 bc fc 46 ba be 26 28 f7 be
       -0.05988163 -0.020036707 -0.36382282 -0.48272818
0003a0 e5 10 ed 3c 14 fa b6 3e ef 1a 9d 3c be 7a 9b 3d
       0.02893872 0.3573767 0.019177882 0.075917706
0003b0 53 cb 81 be fa a8 8a bd c8 1b 6f 3c 8f 1c 07 bd
       -0.25350437 -0.06770511 0.014594026 -0.03298622
0003c0 69 78 40 3d 4b 04 7f be 56 8b f4 bd cb 62 0a be
       0.046989832 -0.24903981 -0.11940639 -0.13514249
0003d0 e9 c7 41 be d3 90 05 be 78 69 fd bd 47 bc 2e 3d
       -0.18923916 -0.13043527 -0.12373632 0.042660024
0003e0 11 06 99 be 8c 93 ab be a2 bb b2 bd 81 99 3e 3d
       -0.2988744 -0.33511007 -0.08727194 0.04653311
0003f0 02 8a 7a be 8a 89 92 bd 86 1c 56 be 07 82 ab be
       -0.24466708 -0.0715514 -0.20909318 -0.3349764

fc2.bias f4 [256]
000000 93 bb bf bb 3c 10 86 3e f5 86 37 be d7 d4 96 be
       -0.005851218 0.2618426 -0.17922576 -0.2945926
000010 5b 14 03 bd 17 35 84 3f de d3 77 3e b8 04 22 bd
       -0.032001834 1.0328702 0.24201915 -0.03955528
000020 50 46 9d bd ef 64 83 be cd 54 1c 3f 6d 47 2b be
       -0.07679427 -0.25662944 0.61066896 -0.16726466
000030 f7 a2 94 3f 16 6a 45 be 13 3b 91 3c dc b1 90 3d
       1.1612233 -0.1927875 0.017728364 0.07065174
000040 16 fc e6 bc b2 b3 e3 bb 34 75 7f be d6 22 ec 3d
       -0.028196376 -0.0069489116 -0.24947053 0.11530082
000050 8e 35 46 3f 7f ee 8e be 69 74 a1 3d f6 92 ac 3d
       0.7742547 -0.27916333 0.078835316 0.08426468
000060 dd 18 e5 bd 9a 67 8a 3e 9c 88 b8 bd 78 68 e7 bd
       -0.11186383 0.27032167 -0.09010431 -0.11299223
000070 14 d7 14 bd 85 1d 7a be 84 bd 49 3f 1c 50 f8 3d
       -0.036337927 -0.24425323 0.788048 0.12124655
000080 87 df 0a 3f ff 19 a4 3e e6 2b 58 be 5b 28 58 3f
       0.54247326 0.32051083 -0.21110496 0.8443658
000090 20 53 50 be be e7 b2 bd 5d 77 91 3d 19 cf 85 bc
       -0.2034421 -0.087356076 0.07102845 -0.016334103
0000a0 31 61 01 be cf d0 3e 3e e3 23 2c 3e 35 97 a0 bd
       -0.12634732 0.18634342 0.16810565 -0.078413405
0000b0 c2 a8 94 be 62 09 19 be f4 e2 47 be 31 d9 fe bd
       -0.29035002 -0.14944986 -0.1952017 -0.1244377
0000c0 a2 17 61 be 26 d9 1b 3d 27 22 09 3d 62 08 00 3f
       -0.21981671 0.038048886 0.033479836 0.5001279
0000d0 e0 d9 95 3e c8 da 98 bd 70 01 e9 bd e1 43 23 bd
       0.29267788 -0.07463604 -0.11377227 -0.039859656
0000e0 e7 14 86 be a6 db 54 bd 50 a2 71 3c a7 d3 a3 3c
       -0.26187822 -0.051967286 0.014748171 0.019998385
0000f0 41 02 fc 3e 29 c3 8d 3c e9 63 e0 bd 71 63 31 3a
       0.4922047 0.017304974 -0.10956556 0.0006766832
000100 67 dd 9f 3e 6d 96 06 be cf 76 80 bd 37 cc 1b be
       0.31223604 -0.1314332 -0.06272661 -0.1521462
000110 87 90 fd 3c 0d 2a ce 3e 4d 9d d9 bd f5 e7 4d 3e
       0.030952705 0.40266457 -0.10625706 0.20108016
000120 ee e5 03 3f bf 78 87 bd 85 7c 02 3d c5 36 48 be
       0.5152272 -0.06614827 0.031857032 -0.19552143
000130 79 ae 2c 3f 85 af 18 be a7 cb eb 3e 11 aa 63 3c
       0.67453724 -0.14910705 0.46053812 0.013895527
000140 c9 49 87 be f2 54 36 3e 92 0c 8e be 4f 5e 94 bd
       -0.2642348 0.17805842 -0.27743965 -0.072445504
000150 12 91 d9 ba 0a d4 2c 3e c8 40 fd bd 26 90 16 be
       -0.001659902 0.16877761 -0.12365872 -0.14703426
000160 f7 5a 2b 3e 8f 47 2e bd 96 6d 4c 39 53 32 40 3e
       0.16733919 -0.042548712 0.0001949578 0.18769197
000170 a5 7e 51 3c c4 1b 6d bd 47 b7 de bd c0 bf 35 3e
       0.012786542 -0.057887807 -0.10874801 0.17748928
000180 9b 9d 97 3f f2 80 9a bd 2b fb a4 3f 17 21 1f 3f
       1.1844972 -0.075441256 1.288915 0.62159866
000190 d1 d7 b7 bd 3d 0e 09 be 5a 6c a0 bd 46 60 2b be
       -0.089767106 -0.13384338 -0.078331664 -0.16735944
0001a0 b5 fd 1a be 69 e9 1b 3e 4b 9b f4 bd d7 fd 0c be
       -0.15135844 0.15225758 -0.11943682 -0.13768707
0001b0 6c c7 d6 3e 22 2b 56 be a3 d9 8c 3e 1b 0a 2f 3f
       0.41949022 -0.20914891 0.27509794 0.68374795
0001c0 02 00 59 be 2f a9 b8 bd 92 1c 9f bd 33 a8 a6 3d
       -0.21191409 -0.09016644 -0.07769121 0.0813755
0001d0 18 68 fe bd d6 00 a6 bd be b2 64 be 6e 85 14 be
       -0.12422198 -0.08105628 -0.2233381 -0.14504024
0001e0 cf da 95 be a9 2f 7a bd c1 8c 80 be a0 55 74 3a
       -0.292685 -0.06108061 -0.25107387 0.00093206204
0001f0 87 16 d6 3e 78 bd 91 3e ac d7 9b bd 7b 30 05 3f
       0.41814062 0.28464866 -0.076094955 0.520271
000200 31 42 2a be a5 15 1d be 79 a8 d5 3d 98 78 90 be
       -0.16626813 -0.15340288 0.10432524 -0.28217006
000210 fd 31 cd 3e f2 0f ac 3e 67 8e 05 3f 9c 4f 1f be
       0.400772 0.33605915 0.52170414 -0.15557712
000220 c5 79 00 3e 74 f0 c6 bd 60 95 94 3d 61 2f cd bd
       0.12546451 -0.097138315 0.072550535 -0.100188024
000230 6e 22 6b be 27 dc 4e 3e b0 a1 d5 bb 73 5e 2d 3d
       -0.22962353 0.20201169 -0.006519519 0.042326402
000240 42 f0 a0 3e fa 6e 8c bd 49 96 e7 bd 81 e3 a4 3e
       0.31433302 -0.068571046 -0.113079615 0.32204822
000250 c3 5a cf 3d 4b d1 33 3e 47 56 ba bd 74 b9 46 3f
       0.10124733 0.17560308 -0.09098487 0.7762673
000260 a5 c7 d0 3c ae a5 cb bc d7 af 8b 3e 8d f4 bf 3d
       0.025485823 -0.024859276 0.27282593 0.09372816
000270 25 23 d4 3e 6a 0b 26 3e df ac 07 3d e9 b5 7a 3f
       0.41433063 0.16215292 0.033123847 0.9793382
000280 d3 5c 24 3f a8 2e fa bd f9 a3 8b 3d 84 38 90 3e
       0.6420414 -0.1221593 0.06818385 0.28168118
000290 a7 a6 aa 3e 0b 9b d5 bd 36 29 c3 3f 78 17 09 be
       0.3333027 -0.10429963 1.5246952 -0.13387859
0002a0 58 47 8d 3e 13 cd d7 bd b3 00 9d bd 65 56 37 3f
       0.27593493 -0.10537162 -0.07666149 0.716162
0002b0 46 dd 8b 3f 84 c1 1a 3f ee 9b d8 3e 5f 27 4c be
       1.0926902 0.6045153 0.42306465 -0.19936894
0002c0 ec 61 9e be ae 3a 99 3e cc 76 52 bd 88 6a c2 3d
       -0.30934083 0.29927582 -0.051382825 0.094929755
0002d0 90 23 13 be f2 fc 81 be 35 e5 ae bd 91 6b 87 bc
       -0.14369035 -0.25388294 -0.085398115 -0.016530784
0002e0 86 47 05 3e a9 da 36 be 22 3d ac bd 32 14 22 3e
       0.13015565 -0.1785685 -0.08410098 0.15828016
0002f0 5b 0d f9 bd 5c 97 3b be 34 d0 da 3e 5a 6f 96 3f
       -0.121607505 -0.18319458 0.4273697 1.1752732
000300 bc 3b 95 bd fa c2 ce 3e c2 67 55 3f 5e fc 03 3e
       -0.07286784 0.4038313 0.83361447 0.12889239
000310 df 64 f4 bd 17 76 04 3d 0b ad 7c bd a4 ef 8c 3e
       -0.11933302 0.03233918 -0.061688464 0.2752658
000320 1e 63 42 be 81 61 ec bd 25 dd d7 3d c9 80 65 3d
       -0.18983123 -0.11542035 0.10540227 0.056031022
000330 bb 30 44 3f dd cb 43 be 13 17 6a 3f f2 3f 11 be
       0.76636857 -0.19120736 0.9144146 -0.1418455
000340 e1 de a4 3f 20 38 d1 3d 34 c4 b2 bd aa 1d 29 bd
       1.2880517 0.10215783 -0.08728829 -0.041288055
000350 36 6d 68 bd 39 79 56 3f dc ba e5 3c 63 7d 1d be
       -0.056744777 0.8377872 0.028043203 -0.15379862
000360 b9 36 cc bd 48 d6 d1 be 74 a6 2f 3c 3e 66 98 3e
       -0.09971375 -0.40983796 0.010720838 0.29765505
000370 f6 76 3a 3e ff 3c 0e be 93 20 53 3e 72 ee 17 3e
       0.18209442 -0.13890456 0.20617895 0.14837053
000380 88 3b c9 bc ff 3f 88 be ca 6d 69 be 85 e1 6f bc
       -0.02456452 -0.26611325 -0.22795787 -0.01464117
000390 de 43 67 3e b2 62 7b 3e 5d ac 13 3e 05 68 28 bd
       0.22584483 0.24549368 0.1442122 -0.041114826
0003a0 ec ef ae bd 04 06 01 be ec 5c 99 3e 2b 04 8c bd
       -0.08541855 -0.12599951 0.29953706 -0.068367325
0003b0 00 4a 00 3e 42 39 d1 3e b5 ae a1 3e c3 5e b3 3c
       0.12528229 0.40863997 0.31578603 0.021895772
0003c0 8f 7e 79 be 9a 2d d4 3d e7 d1 1e 3c b7 05 d2 3e
       -0.24364685 0.1036026 0.009693599 0.41019985
0003d0 84 84 25 3b a5 7a 75 bd ab 72 c1 bd 6d c6 9c 3e
       0.0025255987 -0.059931416 -0.09445699 0.30620137
0003e0 78 7c b0 be 51 2f a3 3f ed c4 36 3e 39 01 bc bd
       -0.34469962 1.2748815 0.17848559 -0.09179921
0003f0 a7 bd 28 bd 5c 16 64 3f 7a be 4a 3f 29 ca f9 bd
       -0.04119649 0.8909662 0.79196894 -0.12196762

fc3.weight f4 [6, 256]
000000 d3 e1 a6 be 63 83 1c bf ed 8c 08 3e 45 84 8e bb
       -0.32594165 -0.6113798 0.13335009 -0.004349264
000010 e4 ba e1 bc 58 67 f3 3d ba 3b ab bc 3d 6b d6 be
       -0.027554937 0.11884946 -0.020902503 -0.4187869
000020 76 58 4e bd 75 2f 98 be f2 04 42 3e a5 43 94 bc
       -0.05037733 -0.29723707 0.18947199 -0.018098662
000030 d8 5f fe 3d ab b8 c5 3d 13 96 52 bc b0 77 a0 bd
       0.124206245 0.09654363 -0.012853163 -0.078353286
000040 cc e1 00 bd c4 57 a7 3c cd 18 ab 3e 57 78 d0 3b
       -0.031465337 0.020427592 0.3341736 0.006362002
000050 5c 6b 83 bd fa 7c 51 bf c1 35 65 bc 91 d2 be 3e
       -0.064169616 -0.81831324 -0.013989867 0.37270024
000060 37 49 26 3c b0 0b 20 bd 8d e8 27 be 0f d0 18 3c
       0.010149292 -0.039073646 -0.16397305 0.009326949
000070 f6 e9 52 bb e0 3a 60 be 95 fe dd 3d cc a7 b4 ba
       -0.0032182909 -0.21897459 0.10839573 -0.0013782918
000080 d7 a2 c3 3c 9c 44 db bb 5e 6d 46 3e 97 86 a6 be
       0.023881359 -0.0066915285 0.19377658 -0.3252456
000090 51 68 1c 3c 1f 3d fe 3b d9 8a e7 bb 74 b3 c5 3d
       0.009546355 0.007758751 -0.0070661125 0.096533686
0000a0 34 f6 76 3e 55 aa 8d be 70 f6 0e be 54 f3 01 be
       0.24117357 -0.27669016 -0.13961196 -0.12690479
0000b0 16 58 5a 3d d0 d0 a6 be 22 9d 65 3c 9a 0b 9c 3e
       0.05330666 -0.32581186 0.014014514 0.304776
0000c0 01 fb 6d 3e ae 28 3e 3d ad 0b 5d 3f 87 dc 0e 3c
       0.23240282 0.046425514 0.8634594 0.00871957
0000d0 13 d7 09 3e 4f 88 a3 3c 89 a6 81 bd b4 f3 d8 3b
       0.1346095 0.019962458 -0.06330592 0.0066208486
0000e0 da f8 04 be 02 05 97 be 41 7a b4 ba 19 0c 98 ba
       -0.12985554 -0.29496008 -0.0013769345 -0.0011600285
0000f0 a3 84 a4 bd 89 63 8f 3c b1 92 1f be bc 92 e1 3e
       -0.08033111 0.017503517 -0.15583302 0.44057262
000100 f2 ae e3 3e 8a e9 ec 3b 56 ba 37 bc 46 24 f9 b8
       0.4446941 0.0072299885 -0.01121386 -0.00011880002
000110 75 b2 a4 3b 76 c4 90 3d b0 76 01 3d 6c 08 dc 3c
       0.0050261565 0.07068722 0.03160733 0.026859485
000120 97 cb a7 bd a9 d8 32 bd 65 ea e5 3b 6e 75 1c 3d
       -0.081931286 -0.043663654 0.0070164674 0.038197927
000130 fa dc 17 3d 9a 01 de 3c 83 37 37 b9 18 f0 82 3b
       0.037075974 0.027100373 -0.0001747292 0.0039959066
000140 04 38 37 ba 46 de 06 3d c5 36 d0 3d cd 29 b5 3e
       -0.0006989243 0.03292682 0.101666965 0.35383454
000150 05 f1 21 3e 24 53 10 3e 13 fe 12 3d 46 6d be 3e
       0.15814598 0.14094216 0.035886835 0.37192744
000160 aa f5 99 3e 94 f9 05 3c 29 10 15 3f fe f5 6c bf
       0.3007024 0.00817718 0.58227783 -0.92562854
000170 ac 2e 91 3b 40 5b f5 3e ba a2 a2 bd 0a d4 05 bd
       0.0044306125 0.4792118 -0.07941194 -0.03267292
000180 79 ab c5 3d c1 ac a0 3d aa 99 3a 3e af 97 3a bc
       0.096518464 0.0784545 0.1822268 -0.011388703
000190 59 e7 2a 3d e8 3d 0f 3f 23 42 6e be 5f fb 79 bc
       0.041724537 0.55953836 -0.23267417 -0.015257685
0001a0 f4 a2 0e bf d8 68 38 bb f6 10 42 bc a9 0f f1 bd
       -0.55717397 -0.0028138664 -0.011844864 -0.11770565
0001b0 ce d7 53 3d 12 9d e2 3e ce 94 11 be ce a1 8c 3e
       0.05171948 0.4426046 -0.1421692 0.27467197
0001c0 1a 54 ce 3c 44 bb f8 bd fc 2d 5a bd a0 fe 6f 3c
       0.025186587 -0.12145093 -0.05326651 0.01464811
0001d0 a4 b3 3f be 02 2f d4 bc 2f 6f 10 3f 0a f5 d1 bd
       -0.18720871 -0.025901321 0.5641965 -0.102518156
0001e0 78 5c 01 bc 89 0c 93 bb dd 0a 90 3e e3 3a 8d bc
       -0.007895581 -0.0044875783 0.28133288 -0.017239993
0001f0 1d 67 24 3d 76 32 dd bc 53 e6 6e bd d0 79 cb 3e
       0.0401374 -0.0270016 -0.058325123 0.39741373
000200 48 e3 a8 bf b5 f8 78 bf 01 61 82 bd b9 c6 d4 3d
       -1.3194361 -0.97254497 -0.06366158 0.10389466
000210 05 8d b7 3d 02 78 ce 3c 37 af b9 bc f5 46 c5 3e
       0.08962444 0.025203709 -0.022666557 0.38530698
000220 a5 41 d3 bc 08 7c 08 bd b4 bb 0e be 2a cd 6f 39
       -0.025788138 -0.03332141 -0.1393879 0.00022869246
000230 3a 1d df 3e 2d 0f 6e 3e e4 bd 66 bf 2d bd 23 be
       0.43576986 0.23247977 -0.901335 -0.15990134
000240 94 69 87 3e 72 c2 5f be 78 d0 96 bb cc 3d 4f bc
       0.26447737 -0.21851519 -0.004602488 -0.012649011
000250 96 15 29 bd 7b 7d 3c 3d 24 5b 3f bc 0c 90 d1 bc
       -0.04128035 0.046018105 -0.011679444 -0.025581382
000260 da ee 47 be 4f 55 17 3c 01 7e ee bc c7 83 2a be
       -0.19524708 0.009236648 -0.029112818 -0.16651832
000270 9f 05 0c 3b 5f 08 23 3e 9c 3b 87 3a 76 8d be 3d
       0.0021365655 0.15921162 0.0010317448 0.09304325
000280 2b 02 08 bd 8c c3 f6 3c 4a b7 de be 97 fd a0 be
       -0.033205193 0.03012254 -0.43499213 -0.31443474
000290 47 78 38 be 3c 7f 0d bd 26 81 88 3e 59 1e 59 3d
       -0.18014632 -0.03454517 0.26661032 0.053007457
0002a0 23 da 0d be 35 57 2d 3d 82 8b 36 3c 96 04 60 3b
       -0.13852744 0.042319495 0.01114166 0.003418242
0002b0 3a 98 22 3d 4f 42 8b 3c fd 75 7f 3b c1 65 98 3d
       0.039695956 0.016999392 0.0038980239 0.07441283
0002c0 a9 fa 02 3f eb 43 4f 3e b1 92 a2 39 e1 03 3e bc
       0.5116373 0.20240752 0.00031008341 -0.0115976045
0002d0 a8 87 67 3d d4 5f 14 3c 7b 9c 41 bd 8c c2 1a 3d
       0.056525856 0.00905605 -0.047268372 0.03778319
0002e0 fb cd c2 3d eb d8 09 bc 03 a5 6d bc b6 4a 16 3f
       0.09511944 -0.008413534 -0.014504674 0.5870775
0002f0 e9 d8 c8 be 5f c0 65 bc 3a 3f c6 be 33 36 05 3e
       -0.3922799 -0.014022916 -0.38720113 0.13008957
000300 1c 1f 3a bd d8 a5 81 3e 45 83 4c 3d 04 58 52 bc
       -0.045439824 0.2532184 0.049929876 -0.012838367
000310 c2 46 8d bd 20 bd 2f 3b 15 7b e5 bb b0 24 c5 bd
       -0.068982616 0.0026815608 -0.007003198 -0.09626138
000320 27 eb 2a 3d b0 6a fa 3e f5 83 5b ba 4d 92 38 bd
       0.041728165 0.4890952 -0.000837385 -0.0450614
000330 62 35 61 3e 0b ca a4 3d 9d aa a2 3d 0d 8c c2 bc
       0.2199302 0.08046349 0.07942698 -0.023748422
000340 f8 9e 02 3e 2a 4b 17 bd 79 7d 08 be 96 6d 60 3b
       0.12755954 -0.036936916 -0.13329114 0.0034245006
000350 ce 32 a6 3c d5 38 b7 3d a1 ef 26 3e fa 41 99 3b
       0.020287897 0.08946387 0.16302349 0.0046770545
000360 b4 32 c4 bd 81 23 7d 3f d8 94 8a bd c7 fb 6d 3d
       -0.09579983 0.988823 -0.06766671 0.05810144
000370 66 23 07 38 b2 6e 3b bd e1 69 e3 3c ed 07 9b 3c
       3.2219476e-05 -0.045759864 0.027760448 0.018924678
000380 49 a2 c0 3e 66 03 99 3c 64 95 69 bb 97 90 9c 3c
       0.37623814 0.018678378 -0.0035642022 0.019111915
000390 81 d6 26 3e 6a a0 e1 bc f1 6b 8e be 25 85 9e 3c
       0.16292764 -0.027542312 -0.27816728 0.019350598
0003a0 b2 f5 a2 bb c7 f8 84 3d 21 f8 cb be c8 e4 aa bb
       -0.004973137 0.06492763 -0.39837745 -0.005215261
0003b0 05 9d 3c 3e a6 2c cf 3e 3c 23 e2 be b9 5a 25 bd
       0.18419273 0.40463752 -0.44167507 -0.040369723
0003c0 12 78 09 bb eb e7 de be 59 c7 8d bd 29 5f b2 3d
       -0.0020976108 -0.43536314 -0.06922788 0.087095566
0003d0 eb db 9f 3e e9 60 32 be 74 2d 22 bd cc 13 36 3d
       0.31222472 -0.17419781 -0.03959413 0.044452474
0003e0 d0 3b 77 3e e6 79 9a 3e 49 f6 a6 bb f6 9b 84 3e
       0.2414391 0.30171126 -0.0050952774 0.2590024
0003f0 8d 48 2e 3c 88 83 a5 3d 54 3c 9a 3d 3f 2c 45 bb
       0.010637415 0.08081728 0.07531038 -0.0030086187

fc3.bias f4 [6]
000000 9a c6 83 3f 6b a9 8c 3f 2a 64 74 3f 7d a6 68 3f
       1.0294983 1.0989202 0.9546534 0.9087904
000010 b8 32 4f 3f 84 ee 68 3f
       0.80936766 0.90988946
