rubiks_dqn_target_net_19999.pth (torch, 421125 bytes, 6 tensors)

fc1.weight f4 [256, 144]
-0.02726308 0.016279705 -0.123707965 -0.08669364 0.08732846 -0.090594195 -0.057436913 0.014856455
0.043363243 0.010471476 0.05171613 0.009096766 0.019466864 -0.008244342 -0.12123689 -0.012444682
-0.035082016 -0.1152182 0.08540795 0.07198998 -0.13072298 0.03630079 0.07562748 0.04192179
-0.018108588 -0.0577866 -0.042976823 -0.010330812 0.031068517 0.05767152 -0.0048685526 0.028068677
-0.009981971 -0.0154398745 0.023692496 -0.004301804 0.052650284 0.0006670066 0.04682201 -0.10320973
0.05708331 0.09703211 -0.026876474 -0.09349786 -0.09712674 -0.03817786 0.0020278657 0.012761861
-0.06927414 -0.030842679 0.05456107 -0.03725292 -0.11499183 0.000108280234 -0.039553456 -0.023562651
-0.04297733 -0.00035306896 0.062394753 -0.036197007 0.035703007 -0.073354915 0.06116321 -0.06999739
-0.03715599 -0.026872385 -0.07532048 -0.081175886 -0.073753245 -0.04531905 0.026170604 0.08579576
2.454718e-05 -0.086977914 0.08509271 -0.06107755 -0.001669069 -0.042756785 0.015504926 -0.006013323
-0.0636516 -0.029670991 -0.0054370933 -0.07567142 -0.006979523 0.06507211 0.020641537 0.11898523
0.071862854 -0.023599532 -0.0019692243 0.03319444 -0.022806682 0.00045013428 -0.0070768003 -0.00567215
-0.0354183 -0.01506932 0.009879952 -0.06187891 -0.1278316 0.03295704 -0.0053502917 -0.027797112
-0.019393696 0.0683764 -0.104111515 -0.014626607 0.03592921 -0.043635283 0.025603253 -0.05135659
0.021727495 0.104276 -0.07755297 -0.032197583 -0.052961595 -0.058809917 -0.039493226 0.04521934
-0.06621429 -0.008618403 0.07630012 -0.045657296 0.038875677 0.05525386 -0.05275973 -0.022186847
0.06465043 -0.041497387 -0.0074380892 -0.093400344 -0.13006458 -0.09222949 -0.053588793 -0.08924013
-0.022001186 0.0023665451 0.022596335 -0.07213233 -0.03568292 0.015779475 -0.07776456 0.023142086
0.090698265 0.058598086 -0.023541702 -0.00888773 -0.009481528 0.00038150442 0.039569013 -0.022521803
-0.017247563 -0.018986052 -0.06842284 -0.01101099 -0.06571566 -0.06535713 0.009642522 -0.09602067
0.047695655 -0.11441698 -0.053571142 -0.071602315 -0.01433017 0.0022034547 -0.107191466 0.00020509558
0.077985846 0.03709693 -0.003205591 -0.09258737 -0.07108909 0.013802651 0.02269147 -0.044990655
-0.07966765 -0.045534153 0.001503973 0.044168077 -0.055688024 0.023235641 0.05981218 0.00585302
-0.011936182 0.07562474 -0.03706643 0.033321004 -0.11109539 -0.034162343 -0.07076925 -0.10321256
0.032975465 -0.0055613955 0.05253272 -0.059807297 0.07174761 -0.1591437 -0.05792158 -0.05472567
0.007859129 0.057298526 0.0785582 0.12649426 -0.049291145 0.016998848 -0.06319234 -0.08375702
-0.1330249 0.049065176 -0.04212107 0.030653285 -0.14102109 0.079507045 -0.0051181507 0.027939457
-0.02131015 0.06491268 0.018256385 0.08841053 -0.028014053 0.005917525 -0.04585489 0.01259693
-0.04306859 -0.04142866 -0.09822205 -0.1352742 -0.018704332 -0.015475239 -0.03293915 -0.07117852
-0.051110797 -0.11675896 -0.1281623 -0.11577842 0.089876525 0.018172812 0.016848382 -0.10721384
0.026922535 0.021896834 -0.058569472 0.013192522 -0.06770121 0.02607174 -0.07495453 -0.15827514
0.057365462 -0.19486146 -0.005306785 -0.028028565 -0.08262875 0.03292308 -0.06340828 -0.030841915
00000000: d356 dfbc 045d 853c 9a5a fdbd 6f8c b1bd
00000010: 43d9 b23d 7389 b9bd f842 6bbd 7d68 733c
00000020: a89d 313d 8e90 2b3c 4bd4 533d 9a0a 153c
00000030: f978 9f3c 4713 07bc 0c4b f8bd c8e4 4bbc
00000040: 29b2 0fbd 85f7 ebbd 5dea ae3d 7c6f 933d
00000050: 3fdc 05be 23b0 143d 95e2 9a3d 2fb6 2b3d
00000060: 7658 94bc a4b1 6cbd 7708 30bd 9142 29bc
00000070: 6783 fe3c f938 6c3d 6188 9fbb 48f0 e53c
00000080: 6c8b 23bc 87f7 7cbc c416 c23c 26f6 8cbb
00000090: d3a7 573d 0eda 2e3a 70c8 3f3d 9f5f d3bd
000000a0: 30d0 693d c5b8 c63d 0d2c dcbc ce7b bfbd
000000b0: 62ea c6bd 6360 1cbd f1e5 043b 2017 513c
000000c0: 9adf 8dbd c9a9 fcbc 6e7b 5f3d 8596 18bd
000000d0: d680 ebbd 8214 e338 ce02 22bd 7606 c1bc
000000e0: ff08 30bd 1d1c b9b9 a491 7f3d 5043 14bd
000000f0: 513d 123d 1a3b 96bd 4686 7a3d cb5a 8fbd
00000100: e130 18bd 7a23 dcbc a041 9abd 8b3f a6bd
00000110: f10b 97bd 78a0 39bd bc63 d63c b0b5 af3d
00000120: abea cd37 7a21 b2bd 1645 ae3d 742c 7abd
00000130: aac4 daba bd21 2fbd 6008 7e3c 690b c5bb
00000140: c55b 82bd 9410 f3bc a529 b2bb 9ef9 9abd
00000150: 7cb4 e4bb 8744 853d 7118 a93c 87ae f33d
00000160: d52c 933d ce53 c1bc 1a0e 01bb e5f6 073d
00000170: 14d5 babc 0000 ec39 81e4 e7bb 71dd b9bb
00000180: c812 11bd 4fe5 76bc 86df 213c bd74 7dbd
00000190: 49e6 02be f6fd 063d 8051 afbb c5b6 e3bc
000001a0: 87df 9ebc ed08 8c3d 6b38 d5bd 70a4 6fbc
000001b0: 822a 133d e9ba 32bd eabd d13c 4a5b 52bd
000001c0: dcfd b13c a88e d53d 17d4 9ebd 9de1 03bd
000001d0: 42ee 58bd abe2 70bd a6c3 21bd ea37 393d
000001e0: 5c9b 87bd 3434 0dbc 3d43 9c3d 2503 3bbd
000001f0: 1a3c 1f3d df51 623d 961a 58bd 31c1 b5bc
00000200: 7267 843d 2af9 29bd 37bb f3bb ae48 bfbd
00000210: a62f 05be d1e2 bcbd ec7f 5bbd 87c3 b6bd
00000220: d53b b4bc 0a18 1b3b f31b b93c 1dba 93bd
00000230: 4128 12bd f543 813c 0743 9fbd 7994 bd3c
00000240: 03c0 b93d 8c04 703d 87da c0bc d79d 11bc
00000250: 6958 1bbc a804 c839 1e13 223d a57f b8bc
00000260: c34a 8dbc a388 9bbc 4621 8cbd 7067 34bc
00000270: ef95 86bd f5d9 85bd abfb 1d3c 7ca6 c4bd
00000280: 855c 433d 7353 eabd 6a6d 5bbd 3ca4 92bd
00000290: 17c9 6abc d667 103b 3387 dbbd ed0e 5739
000002a0: 0bb7 9f3d f3f2 173d e514 52bb 729e bdbd
000002b0: 2897 91bd 8424 623c 76e3 b93c 1f48 38bd
000002c0: cb28 a3bd 0582 3abd f620 c53a 96e9 343d
000002d0: 2019 64bd ac58 be3c 9efd 743d b1ca bf3b
000002e0: fa8f 43bc 25e1 9a3d f8d2 17bd 9b7b 083d
000002f0: fb85 e3bd d0ed 0bbd 78ef 90bd 1b61 d3bd
00000300: 4811 073d 5e3c b6bb 8d2c 573d 7ff8 74bd
00000310: 69f0 923d 91f6 22be 2e3f 6dbd 0628 60bd
00000320: 94c3 003c dcb1 6a3d 1fe3 a03d b687 013e
00000330: 83e5 49bd 2b41 8b3c fc6a 81bd cd88 abbd
00000340: ae37 08be 91f8 483d 2587 2cbd 991c fb3c
00000350: d567 10be 97d4 a23d 29b6 a7bb 4ae1 e43c
00000360: a092 aebc f0f0 843d 6a8e 953c 9410 b53d
00000370: ba7d e5bc cce7 c13b 56d2 3bbd 5b63 4e3c
00000380: b168 30bd 19b1 29bd a428 c9bd 5285 0abe
00000390: d439 99bc db8b 7dbc 34eb 06bd 0bc6 91bd
000003a0: 8e59 51bd 521f efbd fa3c 03be 3c1d edbd
000003b0: 2f11 b83d 26df 943c 9e05 8a3c ee92 dbbd
000003c0: a68c dc3c fd60 b33c 8be6 6fbd 7325 583c
000003d0: efa6 8abd 6794 d53c c381 99bd e112 22be
000003e0: 0cf8 6a3d c389 47be 8ae4 adbb 299c e5bc
000003f0: 4339 a9bd 5ada 063d 33dc 81bd 2fa8 fcbc

fc1.bias f4 [256]
-0.010986079 0.022728765 0.01150088 0.018801449 0.10582395 -0.0052830027 0.038312484 0.006608417
0.018556142 -0.012868939 -0.034097005 0.08138796 0.08294693 0.043955877 0.076180354 -0.048122298
0.053829167 -0.02558611 -0.022320848 -0.04985664 -0.06475847 -0.04649048 -0.033253245 -0.032953832
0.0637194 0.067530885 0.036411073 0.042546432 -0.03286934 -0.044270277 0.06525003 0.054645844
0.040677536 0.08072223 -0.051648702 0.058430716 0.09081442 0.07053958 0.07001472 0.06354746
-0.020547928 0.003627998 0.022344818 0.03242116 0.021187836 -0.04738787 -0.020735087 0.0984462
-0.041807625 0.041533288 -0.019659812 0.097338095 0.021324806 -0.015567493 -0.05638102 0.02027009
0.0916254 -0.053337537 0.0411637 0.08039569 0.09108786 -0.04397797 -0.042939104 0.014044297
0.032174896 0.08237917 -0.046376254 -0.0043868492 0.06866873 -0.020650037 -0.023107648 -0.04945994
0.021556314 -0.022639832 -0.041913617 0.004587874 0.038439736 0.11178756 -0.065965384 0.08831879
0.015147984 0.07517668 0.017472394 0.05959715 0.080382116 -0.011473748 0.09234863 0.024759315
0.032122698 0.03519736 -0.015433462 0.015000351 0.00918363 0.10532788 0.07881653 0.07142251
0.079229824 -0.059750788 -0.06109516 -0.0438593 -0.01534516 0.08056057 -0.043884866 0.0832419
0.033305474 0.06911458 -0.011269321 -0.009022774 -0.030842457 -0.046137094 0.031626027 -0.06373619
0.020297801 0.06304739 -0.03465549 -0.008975974 0.085108556 -0.042799372 0.09344986 -0.021855013
0.04437915 0.037436195 -0.04947232 -0.03053162 -0.019804306 0.08409371 -0.011091473 0.013226509
0.05378067 0.033090103 0.055071943 0.085092664 0.0038885656 -0.002173616 -0.00934141 0.07667236
0.053698443 0.091102466 0.039936442 -0.02553224 -0.043104958 0.08473058 0.0064631198 -0.05362033
-0.050811943 -0.057549555 0.0245349 0.0103998855 0.025388593 0.08183626 -0.017943192 -0.017353814
-0.02420323 -0.028827086 0.094344966 0.048357014 0.048977923 0.04731086 -0.071721785 -0.039794974
-0.011346673 0.09641101 -0.050488796 -0.035720006 0.0048309187 -0.050906803 -0.042875163 -0.056421757
-0.046752587 0.069875725 0.082285024 -0.0503994 0.021281391 0.00953614 0.02431424 0.015851138
0.0774809 -0.05498151 0.008436759 -0.02525331 -0.06627342 0.061849054 -0.04921937 0.0745117
-0.037873402 0.077986084 -0.030821156 0.029132003 -0.03130869 0.039639995 -0.038607184 -0.047638677
0.054800298 0.04073373 -0.007694927 -0.054430794 -0.036748182 -0.013141243 0.07036732 0.0037117817
0.07019971 0.098178014 -0.040175878 0.031713042 -0.050912064 -0.013376249 0.058643665 0.049166262
-0.065654464 0.0653833 -0.0097136805 -0.040287897 0.056457344 0.052609492 -0.0021393192 0.025858993
0.080087036 0.066200115 0.057803713 0.006246497 0.0076398365 0.056778148 0.041590877 0.099985495
-0.012358281 -0.039965335 0.017117564 0.049944233 0.07043738 0.067620195 0.054833796 0.031239592
-0.05965349 0.011608683 0.0022989428 0.0073446175 0.047289465 0.056092046 -0.011461829 -0.011644968
0.017294256 0.081694715 0.06784141 0.02171914 0.053304065 0.06581617 0.036937784 0.017241174
0.056170676 0.09033029 0.005014245 0.039690856 0.029351402 0.09375211 -0.048885155 -0.04956317
00000000: f5fe 33bc ad31 ba3c 306e 3c3c 7f05 9a3c
00000010: 3aba d83d 0a1d adbb 8ded 1c3d 6b8b d83b
00000020: 0d03 983c 3ed8 52bc 4da9 0bbd bbae a63d
00000030: 14e0 a93d 140b 343d 7204 9c3d e31b 45bd
00000040: f97b 5c3d f699 d1bc 36da b6bc 7a36 4cbd
00000050: 17a0 84bd cd6c 3ebd 8e34 08bd 99fa 06bd
00000060: 517f 823d a24d 8a3d c723 153d 2b45 2e3d
00000070: 00a2 06bd c054 35bd cfa1 853d 52d4 5f3d
00000080: 7d9d 263d b251 a53d 978d 53bd 0c55 6f3d
00000090: e9fc b93d 0e77 903d e163 8f3d 2c25 823d
000000a0: 2154 a8bc b5c3 6d3b 7b0c b73c 0dcc 043d
000000b0: 1d92 ad3c c819 42bd a1dc a9bc 299e c93d
000000c0: 793e 2bbd cf1e 2a3d 9d0d a1bc 3259 c73d
000000d0: 5cb1 ae3c cc0e 7fbc c9ef 66bd 760d a63c
000000e0: 19a6 bb3d 7678 5abd 459b 283d 7fa6 a43d
000000f0: 468c ba3d 3e22 34bd eae0 2fbd 0d1a 663c
00000100: d3c9 033d 69b6 a83d 07f5 3dbd 8fbf 8fbb
00000110: 31a2 8c3d 442a a9bc 404c bdbc 8296 4abd
00000120: de96 b03c 2b77 b9bc 9dad 2bbd e055 963b
00000130: fc72 1d3d e0f0 e43d dc18 87bd 7be0 b43d
00000140: 402f 783c 3bf6 993d 4422 8f3c 241c 743d
00000150: 619f a43d 63fc 3bbc 4721 bd3d 0cd4 ca3c
00000160: 1793 033d 1b2b 103d a2dc 7cbc 08c4 753c
00000170: f076 163c 25b6 d73d 906a a13d f745 923d
00000180: 3f43 a23d 3ebd 74bd eb3e 7abd cfa5 33bd
00000190: 446a 7bbc f1fc a43d 9ec0 33bd bb7a aa3d
000001a0: 526b 083d f28b 8d3d f5a2 38bc 42d4 13bc
000001b0: 52a9 fcbc 40fa 3cbd 4b8a 013d 1f88 82bd
000001c0: 9347 a63c fd1e 813d eaf2 0dbd f70f 13bc
000001d0: 654d ae3d 654e 2fbd a462 bf3d 4909 b3bc
000001e0: e9c6 353d b256 193d 7da3 4abd 731d fabc
000001f0: a43c a2bc 5339 ac3d 02b9 35bc 00b4 583c
00000200: 1f49 5c3d 7d89 073d 1e93 613d 1045 ae3d
00000210: 4ed7 7e3b 3a73 0ebb b70c 19bc 6606 9d3d
00000220: e6f2 5b3d ee93 ba3d 6594 233d fd28 d1bc
00000230: d38e 30bd 3a87 ad3d 94c8 d33b fea0 5bbd
00000240: 2f20 50bd 15b9 6bbd 6afd c83c 4864 2a3c
00000250: bdfb cf3c c599 a73d 9afd 92bc 9629 8ebc
00000260: da45 c6bc c826 ecbc ef37 c13d 0112 463d
00000270: 139d 483d 08c9 413d dfe2 92bd 0e00 23bd
00000280: 65e7 39bc 2373 c53d 57cd 4ebd 244f 12bd
00000290: af4c 9e3b a783 50bd de9d 2fbd 801a 67bd
000002a0: a47f 3fbd 011b 8f3d 0d85 a83d 9a6f 4ebd
000002b0: 5056 ae3c 783d 1c3c a82e c73c 3fda 813c
000002c0: 4eae 9e3d 4b34 61bd 553a 0a3c 08e0 cebc
000002d0: 5cba 87bd 6f55 7d3d 409a 49bd 9799 983d
000002e0: 2421 1bbd 2bb7 9f3d a67c fcbc 3da6 ee3c
000002f0: 8a3d 00bd 8c5d 223d 9122 1ebd c620 43bd
00000300: 4776 603d 69d8 263d ba25 fcbb d3f2 5ebd
00000310: 4385 16bd 5e4e 57bc be1c 903d 5d41 733b
00000320: dec4 8f3d 8e11 c93d 768f 24bd 89e5 013d
00000330: 2b89 50bd 0e28 5bbc 5734 703d 9062 493d
00000340: d975 86bd aee7 853d 2126 1fbc ec04 25bd
00000350: d13f 673d 0d7d 573d d233 0cbb 3dd6 d33c
00000360: ac04 a43d ed93 873d 96c3 6c3d 6aaf cc3b
00000370: 9857 fa3b 3490 683d 325b 2a3d 32c5 cc3d
00000380: 637a 4abc b1b2 23bd 223a 8c3c 5392 4c3d
00000390: 7941 903d 757c 8a3d 6799 603d 2cea ff3c
000003a0: 3857 74bd 5832 3e3c dca9 163b 1eab f03b
000003b0: 99b2 413d c6c0 653d 65ca 3bbc 89ca 3ebc
000003c0: afac 8d3c 8f4f a73d 70f0 8a3d 56ec b13c
000003d0: 5d55 5a3d a1ca 863d 134c 173d 5d3d 8d3c
000003e0: 3913 663d 16ff b83d 894e a43b e192 223d
000003f0: 5a72 f03c 1b01 c03d cd3b 48bd c002 4bbd

fc2.weight f4 [256, 256]
-0.017388523 0.09101885 0.011523534 0.03849204 -0.02850771 -0.076408826 -0.029160464 0.020668201
-0.030719588 -0.018517338 0.0045814933 -0.010877358 0.034615476 0.08134954 -0.010635243 0.03507594
-9.373281e-05 -0.052141823 -0.008356803 0.06569566 -0.011690799 0.01984717 -0.089479916 0.0067494945
0.017653113 -0.046679508 0.06316844 -0.02946113 -0.0659807 -0.019073376 -0.028353605 0.07077754
-0.062624395 0.05395605 -0.024840426 0.05010014 -0.03457579 0.010453363 -0.08835793 0.058470402
0.074641235 0.07334214 0.014025786 -0.059312917 0.109749876 0.030218659 0.07039056 -0.038836222
0.020878576 0.019110743 0.058277376 -0.025827957 0.0835749 0.052615196 -0.11117799 -0.012008182
0.049208537 -0.028538551 -0.015128013 -0.041806687 0.05134979 0.019390432 -0.025646832 -0.020573359
-0.11654785 -0.009870867 -0.10041874 0.047491856 0.059359465 0.03927586 -0.0071237683 0.02149079
-0.0066145966 0.04576697 -0.06497692 -0.01249158 -0.059681203 -0.08336924 0.027714254 -0.043510605
0.054798506 -0.06324853 -0.062070414 -0.040986214 -0.0013473314 -0.036319274 0.045804095 -0.024004046
0.014565746 -0.0025378035 0.070038386 0.002217422 -0.005902253 -0.063560165 -0.028797083 0.049909085
-0.007196271 0.077500425 0.05882909 -0.031431288 -0.038479533 0.027700434 -0.07487799 -0.06867013
-0.016724842 -0.1395861 0.010763367 0.0049965475 0.025598817 -0.055458516 0.022757769 -0.03244983
-0.019272484 -0.05431045 -0.06786169 -0.0011688035 0.118910804 -0.07780756 0.09530288 -0.14126784
0.007976749 -0.10556129 -0.014244546 -0.104372464 -0.0023357377 0.087762594 0.104718044 -0.10271828
0.034787364 -0.041021217 -0.029806146 -0.04453363 -0.020947853 0.024495132 0.04638167 -0.05476464
-0.0013403822 -0.026137905 -0.06689924 -0.059537906 0.059623856 0.050794728 -0.06502426 0.033829194
-0.09620442 -0.007382663 -0.041882105 -0.013842378 -0.00044567368 0.039032217 -0.04046742 -0.014142096
0.04164734 -0.0041221348 0.035005633 0.10294762 -0.055499732 -0.06849554 -0.005299259 0.008335125
0.054099377 -0.0034395556 -0.016917571 -0.01570815 0.032801952 -0.073161215 0.10302761 0.05952824
-0.011445001 0.006158123 0.02775165 -0.05016821 -0.013383552 0.07693167 -0.030449271 -0.030688688
0.096577905 0.07717766 0.06919121 0.027793653 0.077312104 0.03689724 -0.07745593 0.0014041604
0.10915951 0.015250863 -0.05737945 0.012589479 0.05613935 -0.034389228 -0.081743576 0.006942981
-0.0007750385 -0.13178901 0.03586387 0.043584175 0.033001255 0.068920545 -0.03566042 -0.07008583
0.041830078 -0.020359093 -0.027542049 0.054284398 -0.056253217 -0.11628704 0.043890517 0.081226274
0.05187518 -0.04872668 0.07136251 0.066644646 -0.00032680662 0.07192284 0.11116252 0.06474381
-0.047418665 -0.02831216 0.019250326 -0.0011830522 0.07736431 0.099151015 -0.016413255 0.006148632
0.04402697 0.017321398 -0.07012282 -0.011622964 -0.02561369 0.07382027 0.015563702 -0.0075452947
-0.03757212 0.000806416 0.023306815 -0.02437214 0.0199037 -0.06511009 0.046030212 -0.045169704
0.104837775 -0.04937377 0.014729738 0.10893106 0.0075963885 -0.0491797 0.0058234036 -0.019384475
-0.074984364 0.0087835 -0.010280865 0.031299204 -0.03203166 0.071351185 -0.018424815 0.030182822
00000000: 6072 8ebc 1768 ba3d 34cd 3c3c d4a9 1d3d
00000010: 0089 e9bc 3b7c 9cbd ede1 eebc 5c50 a93c
00000020: a5a7 fbbc acb1 97bc 5a20 963b f236 32bc
00000030: f5c8 0d3d 969a a63d 713f 2ebc caab 0f3d
00000040: 6b92 c4b8 aa92 55bd f9ea 08bc 728b 863d
00000050: c48a 3fbc 8896 a23c 3f41 b7bd dd2a dd3b
00000060: 439d 903c 0333 3fbd 745e 813d 7858 f1bc
00000070: e420 87bd c53f 9cbc d245 e8bc d1f3 903d
00000080: 3841 80bd 0501 5d3d 267e cbbc ce35 4d3d
00000090: 589f 0dbd 9544 2b3c 01f5 b4bd a97e 6f3d
000000a0: 81dd 983d 6734 963d 69cc 653c 1af2 72bd
000000b0: 8bc4 e03d 1f8d f73c ed28 903d bb12 1fbd
000000c0: 8c09 ab3c 228e 9c3c 42b4 6e3d 2795 d3bc
000000d0: 5129 ab3d 0883 573d 49b1 e3bd f7bd 44bc
000000e0: e48e 493d aec9 e9bc 7cdb 77bc 7d3d 2bbd
000000f0: 2854 523d afd8 9e3c 4e19 d2bc 7689 a8bc
00000100: a4b0 eebd 6bb9 21bc 57a8 cdbd d286 423d
00000110: e922 733d b9df 203d 806e e9bb 740d b03c
00000120: 42bf d8bb 2576 3b3d 9f12 85bd 7ca9 4cbc
00000130: 4774 74bd 7ebd aabd 0109 e33c 2d38 32bd
00000140: 6674 603d 7288 81bd 8c3d 7ebd 29e1 27bd
00000150: f198 b0ba 85c3 14bd 139d 3b3d 22a4 c4bc
00000160: 2ba5 6e3c 4751 26bb 4970 8f3d 2b52 113b
00000170: b067 c1bb d52b 82bd dce7 ebbc 786d 4c3d
00000180: b2ce ebbb 8bb8 9e3d c6f6 703d 18be 00bd
00000190: b79c 1dbd 05ec e23c a259 99bd eda2 8cbd
000001a0: 8902 89bc a9ef 0ebe d558 303c 14ba a33b
000001b0: 9cb4 d13c 7828 63bd 806e ba3c 1dea 04bd
000001c0: 54e1 9dbc a274 5ebd 12fb 8abd 8a32 99ba
000001d0: 8287 f33d 9259 9fbd 282e c33d 84a8 10be
000001e0: e9b0 023c 8530 d8bd f561 69bc 3bc1 d5bd
000001f0: 2d13 19bb e0bc b33d 6a76 d63d f65d d2bd
00000200: 327d 0e3d dd05 28bd 052c f4bc e568 36bd
00000210: d59a abbc 04aa c83c b5fa 3d3d e350 60bd
00000220: c3af afba 291f d6bc 7802 89bd 05de 73bd
00000230: 2538 743d 220e 503d 702b 85bd 7b90 0a3d
00000240: d306 c5bd 44ea f1bb 928c 2bbd 24cb 62bc
00000250: 4fa9 e9b9 3fe0 1f3d 2ac1 25bd 40b4 67bc
00000260: 6796 2a3d f912 87bb 1162 0f3d 34d6 d23d
00000270: b053 63bd 6447 8cbd 68a5 adbb 0c90 083c
00000280: 4f97 5d3d 2b6a 61bb b896 8abc 61ae 80bc
00000290: 575b 063d 8cd5 95bd 2400 d33d e2d3 733d
000002a0: d083 3bbc 14ca c93b 6e57 e33c 2e7d 4dbd
000002b0: b046 5bbc 5a8e 9d3d c070 f9bc d866 fbbc
000002c0: a3ca c53d 520f 9e3d 1fb4 8d3d 84af e33c
000002d0: cf55 9e3d 8f21 173d 37a1 9ebd ce0b b83a
000002e0: 058f df3d c1de 793c b706 6bbd 1a44 4e3c
000002f0: 60f2 653d b8db 0cbd 2d69 a7bd f281 e33b
00000300: f42b 4bba b3f3 06be fee5 123d 5285 323d
00000310: 532c 073d 3726 8d3d a910 12bd 2989 8fbd
00000320: 0456 2b3d 1dc8 a6bc dd9f e1bc 5159 5e3d
00000330: c669 66bd e627 eebd 8bc6 333d f659 a63d
00000340: 127b 543d a195 47bd 8226 923d fd7c 883d
00000350: 3e57 abb9 484c 933d 2da9 e33d 6798 843d
00000360: 133a 42bd e7ee e7bc dcb2 9d3c a510 9bba
00000370: 2e71 9e3d b00f cb3d 1775 86bc 777a c93b
00000380: a055 343d 9be5 8d3c 8e9c 8fbd 3f6e 3ebc
00000390: cdd3 d1bc 152f 973d e6fe 7e3c 853e f7bb
000003a0: 39e5 19bd a965 533a efed be3c 15a8 c7bc
000003b0: 160d a33c 7058 85bd 2d8a 3c3d de03 39bd
000003c0: 30b5 d63d 263c 4abd 0055 713c 3f17 df3d
000003d0: 20eb f83b a770 49bd 40d2 be3b 31cc 9ebc
000003e0: 6791 99bd abe8 0f3c 1371 28bc 9833 003d
000003f0: a133 03bd 9220 923d a3ef 96bc f741 f73c

fc2.bias f4 [256]
0.01939298 -0.039940193 0.037040133 0.0677675 0.010519532 0.06890603 -0.03496561 -0.0475806
-0.011219327 -0.0014417224 0.060730673 0.045235988 0.03904886 -0.047577646 0.028270427 0.012805626
0.011905628 0.054971077 0.018813875 -0.04651654 0.02961985 0.008074468 0.07573843 -0.04689416
0.030439017 -0.021836072 -0.028348267 -0.04233244 0.066476844 -0.028795954 0.06989234 0.0829347
0.022046033 -0.019439604 0.028554812 -0.022767626 0.00952111 0.041895542 -0.01595031 0.06844382
0.070702545 -0.026423888 0.023883475 -0.02943381 -0.0072355624 0.0098612355 0.0076962626 -0.06316469
-0.009475882 0.05048075 0.0017017089 -0.04350297 -0.029792173 -0.032712184 -0.025815181 -0.03068555
-0.019721733 0.060792156 -0.01688829 -0.005912432 -0.03171367 -0.062207256 -0.049183726 0.035866693
0.0032726051 -0.0065185884 -0.011502204 -0.020063588 -0.040068556 -0.0010271748 0.035983745 0.08315711
0.055281147 0.062237997 0.05197566 -0.015156199 -0.02339903 -0.0064665233 0.025113493 0.049138248
-0.06107912 -0.015841719 -0.045885164 -0.02602293 -0.006241578 -0.005021519 0.01870756 -0.035020046
0.07694989 0.05188862 0.045374595 -0.047910996 -0.031128354 0.0086139515 0.0042208508 0.056254257
0.0060986094 -0.03497066 -0.043595064 -0.011932027 0.056142863 0.037795663 0.037700083 0.04691763
-0.007712252 0.05325775 0.012716778 0.011518486 0.00010527918 -0.04630166 0.031330064 0.0110536115
0.04470765 0.020759424 -0.0061132275 -0.040463425 0.04831042 -0.019274164 0.055857588 -0.027087236
-0.021501295 -0.025164288 0.0045029162 0.062048588 0.02985846 -0.027480952 0.032699797 -0.022355316
-0.03868708 0.056701254 -0.031191077 0.0036633115 0.031193953 -0.05428791 0.022126518 0.0021836148
0.019255454 -0.055610217 -0.014801506 -0.03668911 0.01802473 -0.049884934 -0.029349163 0.04246946
0.06422011 -0.025366606 0.067550905 -0.007935189 -0.024164578 -0.035564248 -0.06355499 -0.008926955
-0.04073525 -0.038716536 -0.051308952 -0.049093854 -0.0142518915 -0.030644983 -0.016952708 0.05273744
0.055467274 -0.0020022362 0.043797098 0.005764355 -0.0036095497 0.050985966 0.0164719 -0.037096437
-0.056756664 0.05923824 -0.034453638 0.04521267 0.039073933 0.058668394 -0.0049657524 0.038994826
0.004884803 -0.009005617 0.06602408 -0.004173223 0.0112464 -0.041071758 0.020066272 0.047688875
-0.033638574 -0.029379694 0.046365123 -0.011015474 0.06571056 -0.012635955 -0.045349643 0.025007013
-0.020087294 0.04256071 0.0537182 -0.017345792 0.040656473 0.021053545 -0.033609226 0.06440626
0.0639526 0.056949854 0.048867006 -0.03622428 0.07098105 -0.044814628 0.046778735 -0.037729163
0.030055083 -0.020853452 -0.02061941 -0.04321784 -0.011452158 0.03919203 0.0002603263 0.060571082
-0.010812427 -0.01796808 0.0066180257 -0.01645134 -0.03707677 -0.038261592 -0.05532488 0.06752593
0.064035736 0.03700621 0.023358293 0.05277537 0.067480356 0.023759656 0.0647277 0.065383695
-0.019283347 -0.0150678 -0.034134474 -0.0053844843 0.049883846 -0.03629461 0.049631294 -0.034139104
0.010417952 -0.014960564 0.05358948 0.01065175 -0.010967066 -0.009635648 -0.046384294 -0.031702843
0.0014396552 -0.0026832123 0.04107478 -0.03396068 -0.025938826 -0.042346723 -0.019014578 -0.024906134
00000000: 07de 9e3c 5498 23bd 65b7 173d b0c9 8a3d
00000010: 1d5a 2c3c 9b1e 8d3d 1938 0fbd e0e3 42bd
00000020: 45d1 37bc 2df8 bcba bac0 783d 5f49 393d
00000030: b3f1 1f3d c7e0 42bd 6297 e73c b0ce 513c
00000040: d30f 433c 5a29 613d 8e1f 9a3c 2188 3ebd
00000050: 54a5 f23c c64a 043c c01c 9b3d 1714 40bd
00000060: 3f5b f93c 90e1 b2bc a03a e8bc c864 2dbd
00000070: 0325 883d 7ee5 ebbc b723 8f3d abd9 a93d
00000080: e299 b43c ce3f 9fbc c8eb e93c 2c83 babc
00000090: 6efe 1b3c a99a 2b3d 39aa 82bc 462c 8c3d
000000a0: 7fcc 903d e976 d8bc 47a7 c33c 2c1f f1bc
000000b0: 4c18 edbb 0591 213c ee30 fc3b 7d5c 81bd
000000c0: bb40 1bbc e7c4 4e3d e00b df3a 2c30 32bd
000000d0: b70e f4bc 36fd 05bd 5c7a d3bc 4360 fbbc
000000e0: 798f a1bc 3201 793d 5059 8abc 13bd c1bb
000000f0: 31e6 01bd 09cd 7ebd e074 49bd f4e8 123d
00000100: 3479 563b e299 d5bb be73 3cbc 655c a4bc
00000110: ed1e 24bd 44a2 86ba b163 133d 464e aa3d
00000120: 7c6e 623d 45ed 7e3d 6ee4 543d b551 78bc
00000130: 53af bfbc 21e5 d3bb d0ba cd3c 3045 493d
00000140: 192e 7abd 7ec6 81bc 15f2 3bbd 0a2e d5bc
00000150: 2786 ccbb 8e8b a4bb 9940 993c 2e71 0fbd
00000160: e797 9d3d 2989 543d b6da 393d 523e 44bd
00000170: e400 ffbc 8821 0d3c 104f 8a3b dd6a 663d
00000180: d8d6 c73b 653d 0fbd bd90 32bd 8c7e 43bc
00000190: 0ff6 653d a0cf 1a3d 676b 1a3d b32c 403d
000001a0: 0fb7 fcbb cc24 5a3d 085a 503c 08b8 3c3c
000001b0: 54c9 dc38 cfa6 3dbd f453 003d 351a 353c
000001c0: 5e1f 373d ab0f aa3c 7851 c8bb fabc 25bd
000001d0: 26e1 453d dae4 9dbc edca 643d 0de6 ddbc
000001e0: 7c23 b0bc 5625 cebc 338d 933b a926 7e3d
000001f0: bb99 f43c bc1f e1bc 39f0 053d 7f22 b7bc
00000200: 5876 1ebd 933f 683d 6e84 ffbc 2b14 703b
00000210: 768a ff3c 005d 5ebd ac42 b53c fa1a 0f3b
00000220: 9dbd 9d3c 8ac7 63bd 0482 72bc 5247 16bd
00000230: 99a8 933c 2554 4cbd a86d f0bc 75f4 2d3d
00000240: d585 833d a1cd cfbc 2158 8a3d 9802 02bc
00000250: cbf4 c5bc d1ab 11bd 1e29 82bd 5d42 12bc
00000260: 01da 26bd 3b95 1ebd 5629 52bd a316 49bd
00000270: c480 69bc 300b fbbc 68e0 8abc 3703 583d
00000280: a731 633d f337 03bb 9664 333d eae2 bc3b
00000290: 328e 6cbb a9d6 503d 14f0 863c 6ff2 17bd
000002a0: ad79 68bd cca3 723d 421f 0dbd ec30 393d
000002b0: fd0b 203d 454e 703d c0b7 a2bb 0ab9 1f3d
000002c0: b310 a03b 4c8c 13bc a237 873d 88bf 88bb
000002d0: d242 383c dc3a 28bd 0662 a43c 6955 433d
000002e0: 9ac8 09bd afad f0bc 5be9 3d3d 3f7a 34bc
000002f0: 4293 863d 0907 4fbc 8cc0 39bd 82db cc3c
00000300: 1c8e a4bc 2454 2e3d 9e07 5c3d c318 8ebc
00000310: 6787 263d 7c78 ac3c d4a9 09bd 6ee7 833d
00000320: 95f9 823d 4044 693d c528 483d e95f 14bd
00000330: 835e 913d 8b8f 37bd 0f9b 3f3d e589 1abd
00000340: 1436 f63c dcd4 aabc 09ea a8bc 3105 31bd
00000350: d5a1 3bbc d287 203d 687c 8839 6219 783d
00000360: 9b26 31bc cb31 93bc 06dc d83b f6c4 86bc
00000370: d0dd 17bd 30b8 1cbd 579c 62bd 094b 8a3d
00000380: 2b25 833d d393 173d e459 bf3c fd2a 583d
00000390: 2433 8a3d 9ca3 c23c f58f 843d e3e7 853d
000003a0: 1cf8 9dbc efde 76bc 97d0 0bbd 5470 b0bb
000003b0: 0153 4c3d a8a9 14bd 2f4a 4b3d 72d5 0bbd
000003c0: 0fb0 2a3c 271d 75bc a580 5b3d ad84 2e3c
000003d0: 35af 33bc d6de 1dbc 75fd 3dbd d7da 01bd
000003e0: d0b2 bc3a d5d8 2fbb 073e 283d 5b1a 0bbd
000003f0: a97d d4bc c273 2dbd 76c4 9bbc f307 ccbc

fc3.weight f4 [6, 256]
0.081594355 -0.105333276 -0.09871452 0.022987766 -0.12738398 -0.06747769 0.10069963 0.06950469
-0.024205549 -0.058481667 -0.0053323205 0.0825503 -0.08645791 0.027187154 -0.08112731 0.014789606
-0.07005059 -0.100371584 -0.014427045 0.062436584 -0.085156605 -0.07245598 -0.035132084 0.08783195
0.071482465 -0.0027218352 -0.06310428 -0.041164525 0.024197148 -0.10358942 0.023639783 0.030438997
0.037278034 -0.021255143 0.10517909 0.027593987 0.043734577 -0.05321927 -0.05945991 0.09026901
-0.034628488 0.030433541 -0.076167636 0.021072183 0.068469435 -0.07607787 0.07791103 -0.03186082
-0.010566794 -0.09837308 -0.013593293 -0.012799621 -0.1086857 -0.08263214 0.08752941 0.09941177
0.026363645 -0.083411604 0.019922983 -0.047266897 -0.067701936 0.030788295 -0.03571434 0.0800462
-0.028635807 -0.039700814 0.05583846 0.01787965 -0.04203471 0.07159263 0.075370505 0.05698186
-0.11349083 0.013660621 -0.03949511 -0.11720045 -0.060908426 -0.10660986 0.004682392 -0.023908557
-0.08494144 0.0039968393 -0.0905691 0.088362575 0.009737781 0.11820274 -0.092607126 0.0066607916
0.001249998 -0.06607775 -0.08365831 0.023732569 -0.08031449 0.032865286 0.022543378 0.0034637519
0.08805369 0.10037358 0.012353655 0.036093555 0.05505734 -0.08615505 -0.03684435 0.07462881
0.061312564 0.038223565 -0.04942104 -0.058722474 0.040399186 -0.021634035 0.063100316 0.07116531
-0.017949026 0.11065057 0.089435935 -0.077559866 0.052867517 0.057594407 0.09078789 0.04937466
-0.09817017 0.05839806 -0.06497944 -0.010049272 0.025145503 0.083818376 0.029784955 -0.060476754
0.10827633 -0.07488989 0.02796907 0.022906052 -0.04258014 0.012232505 0.09019827 -0.0128038805
-0.034167614 0.09269906 -0.006965345 -0.03723 -0.042675532 0.053720392 -0.05584705 0.08728794
-0.093308866 0.08886143 0.05992078 0.03370617 0.04995569 0.105548315 -0.030776273 0.06886447
-0.08281986 -0.06188188 -0.048948705 0.03292067 0.059880875 -0.08437781 -0.037480935 0.048027582
-0.055314995 -0.03557577 0.0679887 -0.046477668 -0.1466347 -0.038831137 0.10591864 -0.067968875
-0.051393405 0.095287696 -0.065381885 0.074037515 0.088172086 -0.09515777 0.030084617 0.079958454
0.06983107 -0.0010349557 -0.06546009 0.026179483 -0.11073776 -0.12145688 -0.0077784383 0.06922712
-0.09299132 -0.03149917 0.07892935 -0.003632258 0.040290114 -0.06085616 0.060296163 -0.042617623
0.050103378 0.06308753 0.03162848 -0.037910055 -0.037153844 0.053914763 0.07529183 0.049889844
-0.039311256 -0.0010943172 0.014835811 -0.09077147 -0.024090156 -0.07166571 0.069329426 0.05384397
0.02106265 0.02982827 0.008798958 -0.074377924 0.11922679 -0.08344255 -0.021926804 0.08729173
-0.0011904718 0.029319735 -0.038512677 -0.048691723 0.060881585 -0.0467309 -0.13983282 0.030075096
-0.024944091 -0.024042303 -0.04192164 0.10618701 0.08045432 0.044388812 0.034986187 0.09055875
-0.031031262 0.04806483 -0.09522574 -0.04403121 -0.048721597 0.008649665 0.041316185 0.100719795
-0.11448275 -0.058808926 0.07373538 0.0049637714 0.06498114 -0.06010621 -0.00893189 -0.052124258
-0.032846816 0.072632365 0.04301758 0.001219889 -0.09415199 0.100853205 -0.044414368 -0.009356221
00000000: f11a a73d f9b8 d7bd d72a cabd d750 bc3c
00000010: f270 02be be31 8abd 9c3b ce3d 7a58 8e3d
00000020: b74a c6bc 798a 6fbd bfba aebb 2210 a93d
00000030: d810 b1bd 98b7 de3c 1326 a6bd 1b50 723c
00000040: af76 8fbd 9e8f cdbd 6a5f 6cbc 81bd 7f3d
00000050: 9666 aebd cd63 94bd a9e6 0fbd 3de1 b33d
00000060: 6665 923d d160 32bb d13c 81bd 229c 28bd
00000070: 1939 c63c b126 d4bd 38a8 c13c 345b f93c
00000080: dab0 183d 441f aebc 2268 d73d c90c e23c
00000090: 0723 333d 73fc 59bd 3c8c 73bd f5de b83d
000000a0: 9ad6 0dbd c34f f93c c7fd 9bbd 929f ac3c
000000b0: b439 8c3d b7ce 9bbd d18f 9f3d 7e80 02bd
000000c0: 5920 2dbc d377 c9bd 67b6 5ebc 80b5 51bc
000000d0: 9c96 debd 0a3b a9bd 9f42 b33d 6698 cb3d
000000e0: 92f8 d73c b4d3 aabd 8635 a33c ef9a 41bd
000000f0: 50a7 8abd bc37 fc3c 3349 12bd 43ef a33d
00000100: a495 eabc 529d 22bd deb6 643d 5878 923c
00000110: 972c 2cbd 289f 923d da5b 9a3d d065 693d
00000120: e16d e8bd ccd0 5f3c a0c5 21bd ca06 f0bd
00000130: 1d7b 79bd 4556 dabd c06e 993b e1db c3bc
00000140: c7f5 adbd ebf7 823b 4b7c b9bd 70f7 b43d
00000150: 378b 1f3c 4714 f23d cea8 bdbd c542 da3b
00000160: f9d6 a33a c553 87bd 0c55 abbd ce6a c23c
00000170: ec7b a4bd c09d 063d e4ac b83c 1d00 633b
00000180: 7e55 b43d aa90 cd3d fc66 4a3c d6d6 133d
00000190: ce83 613d 0f72 b0bd 1aea 16bd fdd6 983d
000001a0: e222 7b3d 5090 1c3d b76d 4abd fa86 70bd
000001b0: 9e79 253d dc39 b1bc bd3a 813d 1ebf 913d
000001c0: d609 93bc c49c e23d 302a b73d b5d7 9ebd
000001d0: 9c8b 583d 1de8 6b3d 00ef b93d 153d 4a3d
000001e0: 710d c9bd ce32 6f3d f113 85bd b4a5 24bc
000001f0: f1fd cd3c f8a8 ab3d 94ff f33c 79b6 77bd
00000200: fbbf dd3d df5f 99bd 641f e53c 79a5 bb3c
00000210: 8368 2ebd d86a 483c dfb9 b83d 5ec7 51bc
00000220: 57f3 0bbd 01d9 bd3d 8c3d e4bb 7c7e 18bd
00000230: 8acc 2ebd ea09 5c3d e0bf 64bd 05c4 b23d
00000240: b818 bfbd fbfc b53d 7e6f 753d 7b0f 0a3d
00000250: 569e 4c3d b729 d83d 861e fcbc d108 8d3d
00000260: 759d a9bd db77 7dbd 707e 48bd d3d7 063d
00000270: a645 753d 46ce acbd 9c85 19bd 92b8 443d
00000280: fa91 62bd e6b7 11bd a93d 8b3d 5e5f 3ebd
00000290: 6827 16be 660d 1fbd dfeb d83d 4433 8bbd
000002a0: e481 52bd 3226 c33d f0e6 85bd fba0 973d
000002b0: 9193 b43d 14e2 c2bd 0474 f63c 42c1 a33d
000002c0: 9803 8f3d 5aa7 87ba f10f 86bd 5b76 d63c
000002d0: 7bca e2bd 62be f8bd 45e2 febb f3c6 8d3d
000002e0: 3c72 bebd 4605 01bd b6a5 a13d 2d0b 6ebb
000002f0: 3f07 253d 4f44 79bd 1cf9 763d d18f 2ebd
00000300: 3339 4d3d 0934 813d dd8c 013d 9347 1bbd
00000310: a12e 18bd bad5 5c3d 9a32 9a3d 4b59 4c3d
00000320: d704 21bd 316f 8fba e711 733c 64e6 b9bd
00000330: b858 c5bc 79c5 92bd 96fc 8d3d 7f8b 5c3d
00000340: 948b ac3c 6b5a f43c 8129 103c 7453 98bd
00000350: 2d2d f43d ede3 aabd d79f b3bc 02c6 b23d
00000360: 9b09 9cba f12f f03c 78bf 1dbd f970 47bd
00000370: f85e 793d e668 3fbd 5630 0fbe 0c60 f63c
00000380: 8d57 ccbc 5df4 c4bc 07b6 2bbd 9378 d93d
00000390: 3cc5 a43d 0bd1 353d ad4d 0f3d de76 b93d
000003a0: 4635 febc a1df 443d b605 c3bd 125a 34bd
000003b0: 4c90 47bd 53b7 0d3c 293b 293d 2e46 ce3d
000003c0: ef75 eabd a1e1 70bd 9302 973d 22a7 a23b
000003d0: d514 853d ee31 76bd 1057 12bc 3f80 55bd
000003e0: 628a 06bd 47c0 943d 3433 303d afe4 9f3a
000003f0: c2d2 c0bd 208c ce3d d7eb 35bd d64a 19bc

fc3.bias f4 [6]
0.059763815 0.011108767 -0.025833268 0.05289817 0.0290315 0.07946089
00000000: e7ca 743d 8c01 363c 4aa0 d3bc c0ab 583d
00000010: 78d3 ed3c 64bc a23d
