rubiks_dqn_target_net_88199.pth (torch, 421125 bytes, 6 tensors)

fc1.weight f4 [256, 144]
0	0xbe4cd6ec	-0.20003861
1	0x3e27257a	0.1632289
2	0xbe95c828	-0.2925427
3	0x3dbb182f	0.09135472
4	0xbd0af45e	-0.033924453
5	0x3e2059f5	0.15659316
6	0x3d74b20b	0.059740108
7	0x3df8e345	0.12152723
8	0xbddb243c	-0.107002705
9	0xbeb14e1c	-0.34629905
10	0x3ef3e012	0.4763189
11	0x3eae75b2	0.3407417
12	0x3f6d8623	0.927828
13	0xbea3fb87	-0.32027838
14	0xbdd62106	-0.104555175
15	0xbe9aef45	-0.30260673
16	0xbf010da3	-0.50411433
17	0x3e3264b8	0.17421234
18	0xbebe2565	-0.37137905
19	0xbe73c2fd	-0.23804851
20	0x3e877519	0.26456526
21	0x3d4d8a7b	0.050180893
22	0xbef886f9	-0.48540476
23	0x3ee4507a	0.4459265
24	0x3d64e136	0.05587884
25	0xbd5f3344	-0.05449225
26	0x3d6ab4a1	0.057301167
27	0xbcb8684b	-0.022510668
28	0xbe96b5c6	-0.29435557
29	0xbf048348	-0.5176282
30	0xbe6203c6	-0.22071752
31	0x3db988d1	0.09059299
32	0x3e17f7c2	0.14840606
33	0x3ee491c9	0.44642475
34	0x3e88f9b5	0.2675301
35	0xbd2d0b4c	-0.0422471
36	0xbe9caafd	-0.30599204
37	0xbe29ccc6	-0.16582021
38	0xbe246cf0	-0.16057181
39	0xbddd864d	-0.108166315
40	0x3e9253d5	0.28579584
41	0xbea34073	-0.31885108
42	0xbed7eced	-0.42172948
43	0xbea99f7d	-0.33129492
44	0xbd86a6b2	-0.06574763
45	0xbd26dfd0	-0.040740788
46	0x3ba96712	0.0051697576
47	0xbf9aceda	-1.2094376
48	0x3d8b5803	0.06803896
49	0x3e0773f3	0.13227825
50	0xbe76903c	-0.24078459
51	0xbe6234a8	-0.220904
52	0xbe217540	-0.15767384
53	0xbeaa74d7	-0.33292267
54	0xbbc7c1c0	-0.006096095
55	0xbd9b591f	-0.07585358
56	0xbdeba9bc	-0.11506984
57	0xbe5673fc	-0.20942682
58	0xbefa150b	-0.4884418
59	0xbe0a883d	-0.13528533
60	0x3e38b3cc	0.18037337
61	0xbe9374a5	-0.2879993
62	0x3eb9a660	0.36259747
63	0x3ea43623	0.32072553
64	0x3de7ee61	0.11324764
65	0x3d86b217	0.06576937
66	0x3f4d51c8	0.80202913
67	0x3ea41644	0.32048237
68	0x3e74046e	0.23829815
69	0xbca522c6	-0.020158183
70	0xbd6b345d	-0.057422984
71	0xbd697875	-0.056999642
72	0x3da1b5aa	0.07895978
73	0xbe8ef06a	-0.27917796
74	0x3e9c00b4	0.30469286
75	0x3e44fc91	0.19236971
76	0x3d638817	0.055549707
77	0xbe5173a9	-0.20454277
78	0xbd1ab963	-0.037774455
79	0x3e2eabb3	0.17057686
80	0xbe2fcfa8	-0.17169058
81	0xbd90006a	-0.07031329
82	0x3f42db3f	0.76115793
83	0xbe77274f	-0.24136089
84	0xbea37172	-0.3192249
85	0x3d818536	0.06324236
86	0xbde9e895	-0.114213146
87	0xbe610a7a	-0.21976653
88	0x3ce879ba	0.028378356
89	0x3e0aad69	0.13542713
90	0x3e033763	0.12814097
91	0xbe350626	-0.17678127
92	0xbe9aa583	-0.302044
93	0x3c8f7a3b	0.017514339
94	0x3eb12a7c	0.34602726
95	0x3ded6ae9	0.11592657
96	0xbcb3a830	-0.021930784
97	0xbe1d7a5e	-0.1537871
98	0xbeca4492	-0.3950544
99	0x3d8c3107	0.06845289
100	0x3e3e047c	0.18556398
101	0xbe3ce817	-0.1844791
102	0xbd3f3000	-0.046676636
103	0xbed0b5f1	-0.4076381
104	0x3daa3b56	0.08312099
105	0xbe6a2d2a	-0.22868791
106	0xbeba3132	-0.36365658
107	0x3e0a4bb0	0.13505435
108	0xbf1e2810	-0.6177988
109	0x3ed8bd2a	0.4233182
110	0x3eacb5ec	0.33732545
111	0xbde26a21	-0.11055399
112	0xbcdca987	-0.026936306
113	0xbe16926e	-0.14704296
114	0xbe29c378	-0.16578472
115	0x3e9ae348	0.30251527
116	0x3dec05ad	0.1152452
117	0x3d3243d8	0.043521732
118	0xbe0033d2	-0.12519768
119	0x3e80987a	0.2511633
120	0x3d872fff	0.066009514
121	0x3ee44431	0.44583276
122	0xbce04a42	-0.027379159
123	0xbe9041b7	-0.28175136
124	0x3d7bc0ec	0.06146328
125	0x3e8a6e81	0.27037433
126	0xbda0a4be	-0.07843922
127	0x3cee334c	0.029077195
128	0xbe3a8bfc	-0.18217462
129	0xbe940d76	-0.2891652
130	0xbf1b696f	-0.60707754
131	0xbdd5671a	-0.10420056
132	0x3e65b4a3	0.22432189
133	0xbf899cc0	-1.0750961
134	0xbe2269ff	-0.15860747
135	0x3d9f855d	0.07789109
136	0xbf9b757b	-1.2145227
137	0x3e8d1183	0.27552423
138	0x3e59818a	0.21240821
139	0xbf65f8ba	-0.8983265
140	0x3d5ef40a	0.054431953
141	0xbe02724d	-0.12738915
142	0x3e1411bb	0.14459889
143	0xbeb06f06	-0.34459704
144	0xbecca112	-0.39966637
145	0xbdfe0617	-0.12403505
146	0xbe83f9d4	-0.2577654
147	0xbf0284ce	-0.50983894
148	0xbed4e448	-0.41580415
149	0x3e8672d9	0.26259497
150	0x3d82c89c	0.063859195
151	0xbf00a206	-0.5024723
152	0xbf9a6398	-1.2061644
153	0x3d054a60	0.032541633
154	0x3e2661b4	0.16248208
155	0x3eb95f4d	0.3620552
156	0xbcf00fbc	-0.029304378
157	0xbde926cd	-0.11384354
158	0xbf05b06c	-0.52222323
159	0xbeb84e6d	-0.35997334
160	0xbe8e90e9	-0.27844933
161	0x3e5de872	0.21670702
162	0x3d5b3dc0	0.053525686
163	0x3df1251a	0.11774655
164	0x3e660e9b	0.22466509
165	0x3d946052	0.07244934
166	0xbd5da982	-0.054116733
167	0xbcd55533	-0.026041603
168	0x3d3ce283	0.046114456
169	0x3e357c6a	0.17723241
170	0x3e99d31b	0.30043873
171	0xbe79cd29	-0.24394669
172	0x3d2a41ae	0.041566543
173	0x3e08f300	0.13373947
174	0xbe7ad497	-0.24495159
175	0xbdbc4a47	-0.09193855
176	0xbf5f8497	-0.8731169
177	0x3e83b4b9	0.25723818
178	0x3e69bb39	0.22825326
179	0xbf07bfb0	-0.53026867
180	0x3e6f1870	0.23349166
181	0xbe0e2036	-0.13879475
182	0x3e1b9264	0.15192562
183	0xbdf56a34	-0.11983147
184	0xbec3e75a	-0.38262445
185	0xbd2950fa	-0.04133699
186	0xbed47357	-0.41494247
187	0xbc81287c	-0.015766375
188	0xbdb8b5fa	-0.09019084
189	0x3cc0a896	0.023517888
190	0xbe3240c5	-0.1740752
191	0xbd91c7b0	-0.071181655
192	0xbc822010	-0.01588443
193	0x3ea59e11	0.32347158
194	0x3e2d15fb	0.16902916
195	0x3d6b6261	0.05746687
196	0xbe0bb402	-0.13642886
197	0xbec8b083	-0.39197168
198	0xbd871ce2	-0.06597306
199	0x3ddc1651	0.10746444
200	0xbd76498a	-0.060128726
201	0xbd1557e2	-0.036460765
202	0xbed0b411	-0.4076238
203	0xbf11a98d	-0.5689934
204	0x3f1b1004	0.6057131
205	0xbf069e3b	-0.5258519
206	0x3e99eab2	0.3006187
207	0x3e5a0058	0.21289194
208	0x3d31a2fd	0.04336833
209	0xbe10cef2	-0.14141443
210	0xbd40cca2	-0.047070153
211	0x3cd34944	0.025791772
212	0xbcc02ec2	-0.023459796
213	0xbd8e7c17	-0.06957262
214	0xbeb01062	-0.343875
215	0x3cb130f2	0.021629784
216	0xbcba99bb	-0.022778383
217	0xbf168945	-0.58803207
218	0x3ecba695	0.3977553
219	0xbf09b695	-0.53794223
220	0xbda77582	-0.0817671
221	0x3e2f7ab6	0.17136654
222	0x3d9e0e3f	0.07717561
223	0x3ebec201	0.37257388
224	0x3d8d5070	0.06900108
225	0x3e85dc26	0.26144522
226	0x3c32c582	0.010911347
227	0xbf332400	-0.69976807
228	0xbed42282	-0.41432577
229	0xbe6314b5	-0.22175868
230	0xbe033065	-0.1281143
231	0xbdb503e2	-0.08838631
232	0x3e80e1ed	0.25172368
233	0x3e8a507d	0.27014533
234	0x3e22a99b	0.15885012
235	0xbe263b91	-0.1623366
236	0xbd775959	-0.060387943
237	0x3c219d20	0.009864122
238	0xbd94e53c	-0.072702855
239	0xbfd892b7	-1.6919774
240	0x3d758528	0.05994144
241	0xbdfdd825	-0.12394742
242	0xbe42a372	-0.19007662
243	0xbd6367e2	-0.055518992
244	0x3ddf89fa	0.10914989
245	0x3d27658c	0.040868327
246	0xbd03d48b	-0.03218512
247	0xbf501e75	-0.81296474
248	0xbeca457c	-0.39506137
249	0xbeb4f5c4	-0.35343754
250	0xbe8c1180	-0.273571
251	0x3edd2371	0.43191102
252	0x3eaaa1d5	0.33326593
253	0xbc79c043	-0.015243593
254	0xbea51351	-0.322413
255	0xbe013ef6	-0.12621674

fc1.bias f4 [256]
0	0xbdc7dab6	-0.09758513
1	0xbe9cafd4	-0.30602896
2	0xbef69dbc	-0.48167217
3	0xbde732fa	-0.1128902
4	0xbea0b1d3	-0.3138567
5	0xbec5c8ff	-0.3862991
6	0xbeacd837	-0.3375871
7	0xbe6d74db	-0.23189108
8	0xbe3a1b8d	-0.18174572
9	0xbeb3e9c4	-0.35139287
10	0xbe76f4cd	-0.24116822
11	0xbef23de9	-0.4731286
12	0xbeb46960	-0.35236645
13	0xbe8e5d95	-0.27805772
14	0xbe6c2f10	-0.23064828
15	0xbdbf4230	-0.09338796
16	0xbe456640	-0.19277287
17	0xbea2f664	-0.31828606
18	0x3e45181d	0.1924748
19	0xbe82f94f	-0.25580832
20	0x3df8898e	0.121356115
21	0xbe66850d	-0.22511692
22	0xbd95ad65	-0.07308463
23	0xbde73648	-0.1128965
24	0xbdf7dcef	-0.121026866
25	0xbe0d74bc	-0.13814062
26	0xbe8e57ff	-0.2780151
27	0xbeb25d28	-0.34836698
28	0xbe6a02ae	-0.22852585
29	0xbdf5ca88	-0.120015204
30	0xbeacc52f	-0.3374419
31	0xbeca6629	-0.39531067
32	0xbe98746b	-0.2977632
33	0xbe73954d	-0.23787422
34	0xbeae8e6e	-0.3409304
35	0x3d0edf82	0.034881122
36	0xbde3c924	-0.11122349
37	0xbe07cabc	-0.13260931
38	0xbed78174	-0.42090952
39	0xbe9f862a	-0.31157047
40	0xbe839251	-0.25697568
41	0x3b1939cb	0.0023380395
42	0xbcb9dc07	-0.022687925
43	0xbeb31c9d	-0.34982768
44	0xbea058e6	-0.31317824
45	0xbe86497b	-0.26227936
46	0xbe6205e2	-0.22072557
47	0xbe99af9f	-0.300168
48	0xbe8bed58	-0.27329516
49	0xbec73963	-0.3891097
50	0xbdc39fd9	-0.09551973
51	0xbdc37a3b	-0.09544798
52	0xbe94356b	-0.28947005
53	0xbeaff8af	-0.34369418
54	0xbe7a07ff	-0.24417113
55	0xbea18864	-0.3154937
56	0xbe5d8591	-0.21632983
57	0xbe852725	-0.26006427
58	0xbe9449e9	-0.2896264
59	0xbe6bee23	-0.2304006
60	0xbe5c1e6b	-0.21495979
61	0xbebebb46	-0.37252253
62	0xbe2f1af6	-0.17100129
63	0xbeb1f82c	-0.34759653
64	0xbecde240	-0.40211678
65	0xbe5ace47	-0.21367751
66	0xbe10c186	-0.14136323
67	0xbe9dd804	-0.3082887
68	0xbea3903c	-0.3194598
69	0xbe94d75b	-0.29070553
70	0xbea57f03	-0.32323465
71	0xbe4a2245	-0.19739635
72	0xbea7cef0	-0.32775068
73	0x3c5a00e6	0.013305878
74	0xbe9a2a26	-0.30110282
75	0xbebf5e9d	-0.37376872
76	0xbe68ca73	-0.22733478
77	0xbe73a415	-0.23793061
78	0xbe5ae60d	-0.2137682
79	0xbdfc706e	-0.12326132
80	0xbdd48f1b	-0.10378858
81	0x3e820a2f	0.25398394
82	0xbc869bf5	-0.016431788
83	0xbec943ee	-0.3930964
84	0xbea174b6	-0.31534356
85	0xbe8cec69	-0.27524117
86	0xbeda4f49	-0.42638615
87	0xbec37563	-0.38175496
88	0x3e96eab1	0.2947593
89	0xbe15d78c	-0.14633006
90	0xbd5007e6	-0.050788783
91	0xbe12bfd0	-0.14330983
92	0xbe66afc3	-0.22527985
93	0xbe09c206	-0.1345292
94	0xbeb7caaf	-0.35896823
95	0xbef43c9b	-0.47702488
96	0xbe9ae5c5	-0.30253425
97	0xbeca8e8a	-0.39561874
98	0xbe875e4f	-0.2643914
99	0xbe71a442	-0.23597816
100	0xbe416a9b	-0.18888323
101	0xbe4736a3	-0.19454436
102	0xbe62fd96	-0.22167048
103	0xbd98eaf2	-0.07466687
104	0xbe9da673	-0.30791053
105	0xbe642703	-0.22280507
106	0xbe335496	-0.17512736
107	0xbe5a99df	-0.2134776
108	0xbce003f2	-0.027345631
109	0xbe2e1e62	-0.17003778
110	0x3e2456ed	0.16048785
111	0xbe999755	-0.2999827
112	0xbe0d1c31	-0.13780285
113	0xbea394c9	-0.31949452
114	0xbe8dea0d	-0.2771763
115	0xbe1e318e	-0.15448591
116	0xbd843199	-0.064547725
117	0xbe872944	-0.2639867
118	0x3d8479bb	0.06468531
119	0xbd811806	-0.0630341
120	0xbeaffa6c	-0.34370744
121	0xbe4dc62f	-0.20095132
122	0xbe813842	-0.25238234
123	0xbeaba6a3	-0.3352557
124	0xbd1b75b0	-0.037954032
125	0xbc130edd	-0.008975712
126	0xbe821dcf	-0.25413367
127	0xbeb7f7a9	-0.35931137
128	0xbdceb4a4	-0.10093048
129	0xbe2fc498	-0.17164838
130	0xbec851fc	-0.3912505
131	0xbe681117	-0.2266277
132	0x3d18462f	0.037176307
133	0xbe5225a8	-0.20522177
134	0xbe9cbfc1	-0.30615047
135	0xbe82abb4	-0.25521624
136	0xbe94d19b	-0.29066166
137	0xbea8830d	-0.32912484
138	0xbea5e405	-0.32400528
139	0xbe80afba	-0.2513407
140	0x3ebd3018	0.36950755
141	0xbe8755f2	-0.2643276
142	0xbe4afc6f	-0.19822858
143	0xbe454b61	-0.19267036
144	0xbf013309	-0.504685
145	0xbe320016	-0.17382845
146	0xbe78ed4a	-0.24309269
147	0x3d93e207	0.07220846
148	0xbe9ffecd	-0.31249085
149	0xbea886f0	-0.3291545
150	0xbe87eff0	-0.26550245
151	0xbe9af7cb	-0.30267176
152	0xbea1ea37	-0.31624004
153	0xbe4284a0	-0.18995905
154	0xbe460592	-0.19338062
155	0xbe916fbc	-0.2840556
156	0xbea7da92	-0.32783943
157	0x3d94d36d	0.07266889
158	0xbeaccff7	-0.33752415
159	0xbe79fa6e	-0.24411938
160	0xbe29b7ad	-0.16573973
161	0x3ce00298	0.027344987
162	0xbe8d5b77	-0.27608845
163	0xbec677a4	-0.38763154
164	0xbe52d04a	-0.20587268
165	0xbe59905a	-0.21246472
166	0xbdd4b654	-0.10386339
167	0xbeb2c625	-0.34916797
168	0xbe5a491a	-0.21316949
169	0xbe936dc4	-0.28794682
170	0xbe4fe0fa	-0.20300665
171	0xbea279d8	-0.31733584
172	0xbe31d6fa	-0.17367163
173	0xbe98e768	-0.2986405
174	0xbe6273cb	-0.22114484
175	0xbe85a24e	-0.2610039
176	0xbee4af16	-0.4466483
177	0xbea25cb8	-0.31711364
178	0xbe207d22	-0.15672734
179	0xbeaa7f63	-0.33300313
180	0xbe54dd92	-0.20787647
181	0xbe7962eb	-0.2435414
182	0x3e1fde50	0.15612149
183	0xbe817164	-0.25281823
184	0xbe1c303e	-0.15252778
185	0xbeaab0bf	-0.33337972
186	0xbdcaeb2b	-0.09908136
187	0xbe8e12f1	-0.27748826
188	0xbdfac6e1	-0.122449644
189	0xbe149c9e	-0.1451287
190	0xbdc5e7cc	-0.09663352
191	0xbe1d0f0b	-0.1533777
192	0xbd9b76ff	-0.07591056
193	0xbd8ab85c	-0.06773445
194	0xbeb72b73	-0.35775337
195	0xbe8387c8	-0.2568953
196	0xbda87a57	-0.082264595
197	0xbe9081ae	-0.28223938
198	0xbe76b205	-0.24091347
199	0xbe685e35	-0.22692187
200	0xbe144391	-0.144789
201	0xbe8888eb	-0.2666696
202	0xbe9f200a	-0.3107913
203	0xbdd06e92	-0.101773396
204	0xbe573276	-0.21015343
205	0xbe3a1ac3	-0.18174271
206	0xbe9936ee	-0.2992472
207	0xbeb82c20	-0.35971165
208	0xbe616517	-0.22011219
209	0x3d9bc4ad	0.07605872
210	0xbe51ec90	-0.20500398
211	0xbeb30697	-0.34965965
212	0xbe8fdb38	-0.28096938
213	0x3eaa1eaa	0.3322652
214	0xbe43fb36	-0.19138798
215	0xbec3e7e7	-0.38262865
216	0xbe8a8286	-0.27052706
217	0xbed7e99a	-0.4217041
218	0x3d63cd8f	0.055615958
219	0xbd6858bf	-0.05672526
220	0x3df0b1a0	0.11752629
221	0xbe71d140	-0.23614979
222	0xbe2b27a5	-0.16714342
223	0xbe0331d0	-0.1281197
224	0xbe6f4157	-0.23364769
225	0xbe6cb696	-0.23116526
226	0xbe8cb72e	-0.27483505
227	0xbe8d943f	-0.27652165
228	0xbd4ae7d0	-0.04953748
229	0xbe8115f6	-0.25212067
230	0xbe70a926	-0.23502025
231	0xbe84a836	-0.25909585
232	0xbe12d3be	-0.14338586
233	0xbeb92bb6	-0.3616616
234	0x3dc74746	0.09730391
235	0xbe7f51cb	-0.24933545
236	0xbeadd408	-0.3395083
237	0xbe6da289	-0.23206533
238	0xbe83236b	-0.2561296
239	0xbe6c75e4	-0.23091847
240	0x3c4b9fe2	0.012428256
241	0xbe3dd5f4	-0.18538648
242	0xbe5e4f53	-0.21709947
243	0xbe12149c	-0.14265674
244	0xbdddb1a2	-0.108248964
245	0xbea2f766	-0.31829375
246	0xbebbeafb	-0.36702713
247	0xbe48ee2a	-0.19622102
248	0x3d318d14	0.043347433
249	0xbea48b77	-0.32137653
250	0xbcd831a4	-0.026390858
251	0xbd393d6b	-0.04522459
252	0xbe5d6e77	-0.2162417
253	0xbe7e327f	-0.2482395
254	0xbebd3b6a	-0.36959392
255	0xbe83ba66	-0.25728148

fc2.weight f4 [256, 256]
0	0xbdc5fd3c	-0.09667441
1	0x3e88204f	0.2658715
2	0xbdc258f6	-0.09489624
3	0x3d3848c0	0.044991255
4	0x3dcc605b	0.09979316
5	0xbea28386	-0.3174097
6	0xbdb889da	-0.09010668
7	0xbe3709ba	-0.17874804
8	0xbd5a410b	-0.053284686
9	0xbdfdbd42	-0.12389614
10	0xbe233ea0	-0.15941858
11	0xbd917bd8	-0.071036994
12	0x3d524ec5	0.05134465
13	0x3e2aef17	0.16692768
14	0x3c85a368	0.01631327
15	0xbe2d4812	-0.16922024
16	0xbe3991d1	-0.18122031
17	0x3d43ee95	0.04783495
18	0xbed40af0	-0.41414595
19	0xbea57a0c	-0.32319677
20	0xbd318301	-0.043337826
21	0xbf15c3dc	-0.5850198
22	0x3d9ad4d0	0.07560122
23	0xbdf3f8fd	-0.11912725
24	0xbe2d0492	-0.16896275
25	0xbed72261	-0.42018417
26	0x3d934814	0.07191482
27	0xbea7f62d	-0.32805005
28	0xbd8d1ae2	-0.06889893
29	0x3dcb3456	0.09922092
30	0x3c7c403d	0.015396175
31	0xbc3b4bed	-0.011431676
32	0xbd173383	-0.03691436
33	0x3e9e6884	0.30939114
34	0xbe4ee65d	-0.20205064
35	0xbd634c1a	-0.055492498
36	0xbefb6171	-0.4909778
37	0x3d4c9b03	0.04995252
38	0xbe431239	-0.1904992
39	0xbe84b178	-0.25916648
40	0x3dcc8457	0.09986179
41	0xbe6623d5	-0.22474606
42	0xbe13bb69	-0.1442696
43	0xbe99522a	-0.299455
44	0xbcff06e4	-0.031131215
45	0xbd9936bc	-0.07481143
46	0xbe22a85d	-0.15884538
47	0x3e2e94ed	0.17048998
48	0x3dadfd88	0.08495623
49	0xbe7df231	-0.2479942
50	0xbeca6a9d	-0.39534464
51	0xbdf090da	-0.11746378
52	0xbe61dfe6	-0.22058067
53	0x3e082fa2	0.1329942
54	0xbe43db01	-0.19126512
55	0x3cf79d2d	0.030226314
56	0xbebd6c7b	-0.36996827
57	0x3d17649b	0.03696118
58	0xbcd943c5	-0.026521573
59	0xbe4d52b2	-0.20051077
60	0xbe96a06a	-0.2941926
61	0xbd1f7ab3	-0.038935374
62	0xbc872ee2	-0.016501848
63	0xbe1793cc	-0.14802474
64	0xbe1467f8	-0.14492786
65	0x3d0d9678	0.034567326
66	0xbed09ea2	-0.40746027
67	0xbf2a525d	-0.66531926
68	0x3ec7b9c4	0.39008915
69	0xbec3bbf9	-0.3822935
70	0xbd396fba	-0.045272566
71	0x3f086f9e	0.53295314
72	0x3d94fbe5	0.072746076
73	0xbf13dda2	-0.5776006
74	0x3bd7956f	0.006579093
75	0xbe82bf8d	-0.25536767
76	0xbde8d99a	-0.11369629
77	0xbd219b1e	-0.039454572
78	0xbdc72926	-0.09724645
79	0x3e778a0f	0.24173759
80	0xbec4243d	-0.38308898
81	0xbe1513aa	-0.14558282
82	0xbdad2e73	-0.08456125
83	0x3f34fdfd	0.70700055
84	0x3d28d3f6	0.041217767
85	0x3c85f832	0.0163537
86	0xbe83253b	-0.25614342
87	0x3dd0272c	0.101637214
88	0xbea4577e	-0.32098
89	0x3e8a3c5c	0.26999176
90	0xbe67c2f4	-0.22632962
91	0xbdd92fd8	-0.106048286
92	0x3de3b457	0.111183815
93	0x3a844bbf	0.0010093375
94	0x3cc3135d	0.023812944
95	0x3dbfa8e9	0.09358389
96	0xbdac31e6	-0.08407955
97	0xbebb0de9	-0.3653405
98	0xbe7542f8	-0.23951328
99	0xbcfed142	-0.031105641
100	0xbd8359d0	-0.06413615
101	0xbdc6c13d	-0.09704826
102	0xbbc1df2c	-0.0059164967
103	0xbdfb8db8	-0.1228289
104	0xbd8a73b2	-0.067603484
105	0xbe266276	-0.16248497
106	0xbe838b21	-0.25692084
107	0xbe8eb820	-0.2787485
108	0xbe0de4e0	-0.1385684
109	0xbed6db7f	-0.41964337
110	0x3c2ea531	0.010659502
111	0xbd9de899	-0.0771038
112	0xbe551c0d	-0.20811482
113	0xbdd8bb9f	-0.10582661
114	0xbd81ea99	-0.06343574
115	0x3e245eea	0.16051832
116	0x3d44910e	0.047989897
117	0xbea3b11a	-0.31971055
118	0x3be3f478	0.006956633
119	0xbe87d666	-0.2653076
120	0x3dee9d28	0.11651069
121	0x3d04be56	0.03240808
122	0xbe719499	-0.23591842
123	0xbea2f577	-0.318279
124	0xbd91235d	-0.07086823
125	0x3ee91b30	0.45528555
126	0x3cec843a	0.028871644
127	0x3e3a1bc0	0.18174648
128	0x3e337916	0.1752666
129	0xbe73c1b2	-0.23804358
130	0x3dee264f	0.116284005
131	0xbef81bf3	-0.48458824
132	0x3cb96dd2	0.022635374
133	0x3a0961b8	0.00052406965
134	0xbe4a776c	-0.19772118
135	0xbe29f015	-0.1659549
136	0x3e8c4924	0.27399552
137	0x3b3249e9	0.0027204698
138	0x3de84b49	0.113424845
139	0xbe379bd4	-0.17930537
140	0xbd7fba02	-0.06243325
141	0xbebebd65	-0.37253872
142	0xbd56cdb9	-0.052442286
143	0xbe54147d	-0.2071094
144	0xbf07bc16	-0.5302137
145	0x3d07e377	0.03317591
146	0xbe519d06	-0.20470056
147	0xbe797008	-0.24359143
148	0xbe919dd8	-0.28440738
149	0x3d2496dc	0.040182933
150	0xbe807eae	-0.2509665
151	0xbdb89056	-0.09011905
152	0xbd1d460d	-0.038396884
153	0x3c544dd1	0.012958006
154	0xbe55487b	-0.2082843
155	0xbe8db96f	-0.27680537
156	0xbe04e70a	-0.1297876
157	0xbe1ca69d	-0.15297933
158	0xbd57d9c5	-0.052697916
159	0x3d82eced	0.06392846
160	0xbcddb7e4	-0.027065225
161	0x3e52f040	0.2059946
162	0xbe3421d9	-0.17591037
163	0x3e9f9e5f	0.31175515
164	0xbe29d979	-0.16586865
165	0xbecd5a34	-0.40107882
166	0xbe076090	-0.1322043
167	0xbe80556c	-0.25065172
168	0xbe67239a	-0.22572175
169	0x3d6534b9	0.055958483
170	0xbda206dd	-0.07911465
171	0x3df6da21	0.120533235
172	0xbcf47103	-0.029839044
173	0xbd8cdadb	-0.06877681
174	0x3cd66979	0.02617334
175	0x3d9167a4	0.07099846
176	0xbe0bc9f0	-0.13651252
177	0xbe99121f	-0.29896638
178	0xbf14c49a	-0.5811249
179	0xbc825594	-0.015909947
180	0xbd31dc6d	-0.043423105
181	0x3db61403	0.08890536
182	0x3e1d2dbf	0.15349482
183	0x3cec316d	0.028832162
184	0x3e1edd77	0.1551417
185	0xbecc88f2	-0.3994823
186	0xbe170f4a	-0.14751926
187	0xbece6275	-0.40309492
188	0x3c3e5b87	0.0116185015
189	0x3d93b820	0.072128534
190	0xbc1c0f8d	-0.009525192
191	0xbe349d48	-0.17638123
192	0xbdee44f9	-0.11634249
193	0x3e4d9917	0.2007793
194	0xbe909d88	-0.28245187
195	0xbd1289a9	-0.035775814
196	0x3dfb268e	0.12263213
197	0x3ec00f94	0.37511885
198	0xbdf8839f	-0.1213448
199	0x3ce07e05	0.02740384
200	0xbedc123a	-0.42982656
201	0xbea221f8	-0.3166654
202	0xbe1278ba	-0.14303866
203	0xbd23a1c9	-0.039949212
204	0x3e462b38	0.19352424
205	0xbe96c919	-0.294503
206	0x3df65971	0.12028778
207	0xbf015134	-0.5051453
208	0xbe038f1b	-0.12847559
209	0xbdb11f05	-0.08648495
210	0xbdb5909d	-0.088654734
211	0x3e23f362	0.16010812
212	0xbe8d8355	-0.2763926
213	0xbe19655e	-0.14980075
214	0xbd2727a1	-0.040809277
215	0x3eb667f5	0.35626188
216	0xbcd21076	-0.025642615
217	0xbd5cf561	-0.05394495
218	0xbf06decc	-0.5268371
219	0xbe0f62f7	-0.14002596
220	0xbe9ff8cc	-0.31244504
221	0xbe86deb0	-0.26341772
222	0x3cf1a75c	0.029498748
223	0x3e29c6f3	0.165798
224	0x3d5cfe5a	0.053953506
225	0xbd921ec0	-0.07134771
226	0xbdbe9de7	-0.09307461
227	0xbed447bc	-0.4146098
228	0xbd754671	-0.05988163
229	0xbca42405	-0.020036707
230	0xbeba46fc	-0.36382282
231	0xbef72826	-0.48272818
232	0x3ced10e5	0.02893872
233	0x3eb6fa14	0.3573767
234	0x3c9d1aef	0.019177882
235	0x3d9b7abe	0.075917706
236	0xbe81cb53	-0.25350437
237	0xbd8aa8fa	-0.06770511
238	0x3c6f1bc8	0.014594026
239	0xbd071c8f	-0.03298622
240	0x3d407869	0.046989832
241	0xbe7f044b	-0.24903981
242	0xbdf48b56	-0.11940639
243	0xbe0a62cb	-0.13514249
244	0xbe41c7e9	-0.18923916
245	0xbe0590d3	-0.13043527
246	0xbdfd6978	-0.12373632
247	0x3d2ebc47	0.042660024
248	0xbe990611	-0.2988744
249	0xbeab938c	-0.33511007
250	0xbdb2bba2	-0.08727194
251	0x3d3e9981	0.04653311
252	0xbe7a8a02	-0.24466708
253	0xbd92898a	-0.0715514
254	0xbe561c86	-0.20909318
255	0xbeab8207	-0.3349764

fc2.bias f4 [256]
0	0xbbbfbb93	-0.005851218
1	0x3e8637d5	0.2621447
2	0xbe3786f5	-0.17922576
3	0xbe96d4d7	-0.2945926
4	0xbd03145b	-0.032001834
5	0x3f842d18	1.0326262
6	0x3e78d97a	0.2430171
7	0xbd2204b8	-0.03955528
8	0xbd9d4650	-0.07679427
9	0xbe8364ef	-0.25662944
10	0x3f1c661e	0.6109332
11	0xbe2b476d	-0.16726466
12	0x3f949710	1.1608601
13	0xbe456a16	-0.1927875
14	0x3c913b13	0.017728364
15	0x3d90b1dc	0.07065174
16	0xbce6fc16	-0.028196376
17	0xbbe3b3b2	-0.0069489116
18	0xbe7f7534	-0.24947053
19	0x3dec22d6	0.11530082
20	0x3f462255	0.77396137
21	0xbe8eee7f	-0.27916333
22	0x3da17469	0.078835316
23	0x3dac92f6	0.08426468
24	0xbde518dd	-0.11186383
25	0x3e8aef29	0.2713559
26	0xbdb8889c	-0.09010431
27	0xbde76878	-0.11299223
28	0xbd14d714	-0.036337927
29	0xbe7a1d85	-0.24425323
30	0x3f49b097	0.7878508
31	0x3df8501c	0.12124655
32	0x3f0ad2ba	0.54227793
33	0x3ea419ff	0.32051083
34	0xbe582be6	-0.21110496
35	0x3f582985	0.84438354
36	0xbe505320	-0.2034421
37	0xbdb2e7be	-0.087356076
38	0x3d91775d	0.07102845
39	0xbc85cf19	-0.016334103
40	0xbe016131	-0.12634732
41	0x3e3fa1d1	0.18714072
42	0x3e2c23e3	0.16810565
43	0xbda09735	-0.078413405
44	0xbe94a8c2	-0.29035002
45	0xbe190962	-0.14944986
46	0xbe47e2f4	-0.1952017
47	0xbdfed931	-0.1244377
48	0xbe6117a2	-0.21981671
49	0x3d1bd926	0.038048886
50	0x3d092227	0.033479836
51	0x3f000c50	0.5001879
52	0x3e95d9e0	0.29267788
53	0xbd98dac8	-0.07463604
54	0xbde90170	-0.11377227
55	0xbd2343e1	-0.039859656
56	0xbe8614e7	-0.26187822
57	0xbd54dba6	-0.051967286
58	0x3c71a250	0.014748171
59	0x3ca3d3a7	0.019998385
60	0x3efc239d	0.4924592
61	0x3c8dc329	0.017304974
62	0xbde1add5	-0.11019484
63	0x3a316371	0.0006766832
64	0x3e9f5698	0.31120753
65	0xbe06966d	-0.1314332
66	0xbd8076cf	-0.06272661
67	0xbe1bcc37	-0.1521462
68	0x3cfd9087	0.030952705
69	0x3ecdfa9d	0.40230265
70	0xbdd99d4d	-0.10625706
71	0x3e4de7f5	0.20108016
72	0x3f03cc54	0.51483655
73	0xbd8778bf	-0.06614827
74	0x3d027c85	0.031857032
75	0xbe4836c5	-0.19552143
76	0x3f2ca5d1	0.67440516
77	0xbe18af85	-0.14910705
78	0x3eebd7f6	0.46063203
79	0x3c63aa11	0.013895527
80	0xbe8749c9	-0.2642348
81	0x3e3654f2	0.17805842
82	0xbe8e0c92	-0.27743965
83	0xbd945e4f	-0.072445504
84	0xbad99112	-0.001659902
85	0x3e2cd40a	0.16877761
86	0xbdfd40c8	-0.12365872
87	0xbe169026	-0.14703426
88	0x3e2d6127	0.16931592
89	0xbd2e478f	-0.042548712
90	0x394c6d96	0.0001949578
91	0x3e403253	0.18769197
92	0x3c517ea5	0.012786542
93	0xbd6d1bc4	-0.057887807
94	0xbddeb747	-0.10874801
95	0x3e363f43	0.1779757
96	0x3f9792ed	1.1841713
97	0xbd9a80f2	-0.075441256
98	0x3fa4f118	1.2886076
99	0x3f1f0ecc	0.62131953
100	0xbdb7d7d1	-0.089767106
101	0xbe090e3d	-0.13384338
102	0xbda06c5a	-0.078331664
103	0xbe2b6046	-0.16735944
104	0xbe14f48b	-0.1454641
105	0x3e1be969	0.15225758
106	0xbdf49b4b	-0.11943682
107	0xbe0cfdd7	-0.13768707
108	0x3ed6cfe2	0.41955477
109	0xbe562b22	-0.20914891
110	0x3e8c892b	0.274484
111	0x3f2f111b	0.68385476
112	0xbe590002	-0.21191409
113	0xbdb8a92f	-0.09016644
114	0xbd9f1c92	-0.07769121
115	0x3da6a833	0.0813755
116	0xbdfe6818	-0.12422198
117	0xbda600d6	-0.08105628
118	0xbe64b2be	-0.2233381
119	0xbe14856e	-0.14504024
120	0xbe95dacf	-0.292685
121	0xbd7a2fa9	-0.06108061
122	0xbe808cc1	-0.25107387
123	0x3b49dc02	0.00308013
124	0x3ed62ce8	0.41831136
125	0x3e91bd78	0.28464866
126	0xbd9bd7ac	-0.076094955
127	0x3f0560e2	0.52100956
128	0xbe2a4231	-0.16626813
129	0xbe1d15a5	-0.15340288
130	0x3dd5a879	0.10432524
131	0xbe907898	-0.28217006
132	0x3ecce3c4	0.4001752
133	0x3eabe283	0.33571252
134	0x3f058b67	0.52165836
135	0xbe1f4f9c	-0.15557712
136	0x3e0079c5	0.12546451
137	0xbdc6f074	-0.097138315
138	0x3d95a2d0	0.07306445
139	0xbdcd2f61	-0.100188024
140	0xbe6b226e	-0.22962353
141	0x3e4f2545	0.20229061
142	0xbbfc48f3	-0.007699126
143	0x3d2d5e73	0.042326402
144	0x3ea08941	0.31354716
145	0xbd8c6efa	-0.068571046
146	0xbde79649	-0.113079615
147	0x3ea4b6dc	0.3217076
148	0x3dcf5ac3	0.10124733
149	0x3e3405b4	0.175803
150	0xbdba5647	-0.09098487
151	0x3f46b19f	0.7761478
152	0x3cd0c7a5	0.025485823
153	0xbccba5ae	-0.024859276
154	0x3e8bafd7	0.27282593
155	0x3dbff48d	0.09372816
156	0x3ed42325	0.41433063
157	0x3e267556	0.16255698
158	0x3d07acdf	0.033123847
159	0x3f7aa7ce	0.979123
160	0x3f2454cb	0.64191884
161	0xbdfa2ea8	-0.1221593
162	0x3d8cebba	0.06880899
163	0x3e903884	0.28168118
164	0x3eaaa6a7	0.3333027
165	0xbdd59b0b	-0.10429963
166	0x3fc31ce0	1.5243187
167	0xbe091778	-0.13387859
168	0x3e8d4758	0.27593493
169	0xbdd7cd13	-0.10537162
170	0xbd9d00b3	-0.07666149
171	0x3f374da4	0.71602845
172	0x3f8bd5d6	1.0924633
173	0x3f1ada21	0.6048909
174	0x3ed89bee	0.42306465
175	0xbe4c275f	-0.19936894
176	0xbe9e61ec	-0.30934083
177	0x3e98bd90	0.29832125
178	0xbd5276cc	-0.051382825
179	0x3dc26a88	0.094929755
180	0xbe132390	-0.14369035
181	0xbe81fcf2	-0.25388294
182	0xbdaee535	-0.085398115
183	0xbc876b91	-0.016530784
184	0x3e054786	0.13015565
185	0xbe36daa9	-0.1785685
186	0xbdac3d22	-0.08410098
187	0x3e221432	0.15828016
188	0xbdf90d5b	-0.121607505
189	0xbe3b975c	-0.18319458
190	0x3edafa04	0.42768872
191	0x3f966428	1.1749315
192	0xbd953bbc	-0.07286784
193	0x3eced938	0.404001
194	0x3f5554d0	0.8333254
195	0x3e08367e	0.13302037
196	0xbdf464df	-0.11933302
197	0x3d047617	0.03233918
198	0xbd7cad0b	-0.061688464
199	0x3e8d4b8b	0.27596697
200	0xbe42631e	-0.18983123
201	0xbdec6181	-0.11542035
202	0x3dd7dd25	0.10540227
203	0x3d6580c9	0.056031022
204	0x3f441de6	0.7660812
205	0xbe43cbdd	-0.19120736
206	0x3f6a00f6	0.91407716
207	0xbe113ff2	-0.1418455
208	0x3fa4d4ae	1.2877405
209	0x3dd1c818	0.10243243
210	0xbdb2c434	-0.08728829
211	0xbd291daa	-0.041288055
212	0xbd686d36	-0.056744777
213	0x3f56655f	0.8374843
214	0x3ce5badc	0.028043203
215	0xbe1d7d63	-0.15379862
216	0xbdcc36b9	-0.09971375
217	0xbed1d648	-0.40983796
218	0x3c2fa674	0.010720838
219	0x3e98663e	0.29765505
220	0x3e3a76f6	0.18209442
221	0xbe0e3cff	-0.13890456
222	0x3e532093	0.20617895
223	0x3e17ee72	0.14837053
224	0xbcc93b88	-0.02456452
225	0xbe883fff	-0.26611325
226	0xbe696dca	-0.22795787
227	0xbc6fe185	-0.01464117
228	0x3e6836b8	0.22677124
229	0x3e7b37a3	0.24532942
230	0x3e13ac5d	0.1442122
231	0xbd286805	-0.041114826
232	0xbdaeefec	-0.08541855
233	0xbe010604	-0.12599951
234	0x3e995cec	0.29953706
235	0xbd8c042b	-0.068367325
236	0x3e004a00	0.12528229
237	0x3ed11c71	0.40842012
238	0x3ea1fe01	0.31639102
239	0x3cb35ec3	0.021895772
240	0xbe797e8f	-0.24364685
241	0x3dd42d9a	0.1036026
242	0x3c1ed1e7	0.009693599
243	0x3ed205b7	0.41019985
244	0x3b258484	0.0025255987
245	0xbd757aa5	-0.059931416
246	0xbdc172ab	-0.09445699
247	0x3e9cde01	0.30638126
248	0xbeb07c78	-0.34469962
249	0x3fa323b7	1.2745274
250	0x3e35d7b8	0.17758071
251	0xbdc38b52	-0.095480576
252	0xbd28bda7	-0.04119649
253	0x3f6409be	0.89077365
254	0x3f4ac3aa	0.7920481
255	0xbdf9ca29	-0.12196762

fc3.weight f4 [6, 256]
0	0xbea6e1d3	-0.32594165
1	0xbf1c8363	-0.6113798
2	0x3e088ced	0.13335009
3	0xbb8e8445	-0.004349264
4	0xbce1bae4	-0.027554937
5	0x3df3e15c	0.11908218
6	0xbd014299	-0.031557653
7	0xbed66b3d	-0.4187869
8	0xbd4e5876	-0.05037733
9	0xbe982f75	-0.29723707
10	0x3e421229	0.1895224
11	0xbc9443a5	-0.018098662
12	0x3dfe3a54	0.12413469
13	0x3dc5b8ab	0.09654363
14	0xbc529613	-0.012853163
15	0xbda077b0	-0.078353286
16	0xbd00e1cc	-0.031465337
17	0x3ca757c4	0.020427592
18	0x3eab18cd	0.3341736
19	0x3bd07857	0.006362002
20	0xbd829991	-0.06376947
21	0xbf517cfa	-0.81831324
22	0xbc6535c1	-0.013989867
23	0x3ebed291	0.37270024
24	0x3c264937	0.010149292
25	0xbd200bb0	-0.039073646
26	0xbe27e88d	-0.16397305
27	0x3c18d00f	0.009326949
28	0xbb52e9f6	-0.0032182909
29	0xbe603ae0	-0.21897459
30	0x3dde0fd2	0.10842861
31	0xbab4a7cc	-0.0013782918
32	0x3cbfb08a	0.02339961
33	0xbbdb449c	-0.0066915285
34	0x3e466d5e	0.19377658
35	0xbea7967f	-0.32732007
36	0x3c1c6851	0.009546355
37	0x3bfe3d1f	0.007758751
38	0xbbe78ad9	-0.0070661125
39	0x3dc5b374	0.096533686
40	0x3e76f634	0.24117357
41	0xbe8daa55	-0.27669016
42	0xbe0ef670	-0.13961196
43	0xbe01f354	-0.12690479
44	0x3d5a5816	0.05330666
45	0xbea6d0d0	-0.32581186
46	0x3c659d22	0.014014514
47	0x3e9c0b9a	0.304776
48	0x3e6dfb01	0.23240282
49	0x3d3e28ae	0.046425514
50	0x3f5d0bad	0.8634594
51	0x3c0edc87	0.00871957
52	0x3e09d713	0.1346095
53	0x3ca3884f	0.019962458
54	0xbd81a689	-0.06330592
55	0x3bd8f3b4	0.0066208486
56	0xbe04f8da	-0.12985554
57	0xbe970502	-0.29496008
58	0xbab47a41	-0.0013769345
59	0xba980c19	-0.0011600285
60	0xbda484a3	-0.08033111
61	0x3c8f6389	0.017503517
62	0xbe1f92b1	-0.15583302
63	0x3ee192bc	0.44057262
64	0x3ee35e6c	0.44407976
65	0x3bece98a	0.0072299885
66	0xbc37ba56	-0.01121386
67	0xb8f92446	-0.00011880002
68	0x3ba4b275	0.0050261565
69	0x3d91b99c	0.0711548
70	0x3d0176b0	0.03160733
71	0x3cdc086c	0.026859485
72	0xbdaf737b	-0.08566948
73	0xbd32d8a9	-0.043663654
74	0x3be5ea65	0.0070164674
75	0x3d1c756e	0.038197927
76	0x3d19ece3	0.03757943
77	0x3cde019a	0.027100373
78	0xbcfe7908	-0.031063572
79	0x3b82f018	0.0039959066
80	0xba373804	-0.0006989243
81	0x3d06de46	0.03292682
82	0x3dd036c5	0.101666965
83	0x3eb529cd	0.35383454
84	0x3e21f105	0.15814598
85	0x3e105324	0.14094216
86	0x3d12fe13	0.035886835
87	0x3ebe6d46	0.37192744
88	0x3e99f5aa	0.3007024
89	0x3c05f994	0.00817718
90	0x3f151029	0.58227783
91	0xbf6cf5fe	-0.92562854
92	0x3b912eac	0.0044306125
93	0x3ef55b40	0.4792118
94	0xbda2a2ba	-0.07941194
95	0xbd485689	-0.04891065
96	0x3dc5b1f2	0.09653081
97	0x3da0acc1	0.0784545
98	0x3e3ab319	0.18232383
99	0xba7140de	-0.00092030864
100	0x3d2ae759	0.041724537
101	0x3f0f3de8	0.55953836
102	0xbe6e4223	-0.23267417
103	0xbc79fb5f	-0.015257685
104	0xbf0ea2f4	-0.55717397
105	0xbb3868d8	-0.0028138664
106	0xbc4210f6	-0.011844864
107	0xbdf10fa9	-0.11770565
108	0x3d54cdbe	0.051954024
109	0x3ee29d12	0.4426046
110	0xbe1194ce	-0.1421692
111	0x3e8ca84f	0.2747216
112	0x3cce541a	0.025186587
113	0xbdf8bb44	-0.12145093
114	0xbd5a2dfc	-0.05326651
115	0x3c6ffea0	0.01464811
116	0xbe3fb3a4	-0.18720871
117	0xbcd42f02	-0.025901321
118	0x3f106f2f	0.5641965
119	0xbdd1f50a	-0.102518156
120	0xbc015c78	-0.007895581
121	0xbb930c89	-0.0044875783
122	0x3e900add	0.28133288
123	0xbca5d6a2	-0.020243946
124	0x3d4354e8	0.047688395
125	0xbcdd3276	-0.0270016
126	0xbd6ee653	-0.058325123
127	0x3ecb79d0	0.39741373
128	0xbfa8e348	-1.3194361
129	0xbf78f8b5	-0.97254497
130	0xbd826101	-0.06366158
131	0x3dd4c6b9	0.10389466
132	0x3db8041c	0.08985159
133	0x3cce7802	0.025203709
134	0xbcc3d1ce	-0.023903754
135	0x3ec546f5	0.38530698
136	0xbcd341a5	-0.025788138
137	0xbd087c08	-0.03332141
138	0xbe0ebbb4	-0.1393879
139	0x396fcd2a	0.00022869246
140	0x3edf1d3a	0.43576986
141	0x3e6e0f2d	0.23247977
142	0xbf66bde4	-0.901335
143	0xbe23bd2d	-0.15990134
144	0x3e87f423	0.2655345
145	0xbe5fc272	-0.21851519
146	0xbb96d078	-0.004602488
147	0x3b34fcc3	0.0027616478
148	0xbd291596	-0.04128035
149	0x3d3e06ad	0.046393085
150	0xbc3f5b24	-0.011679444
151	0xbcf86c1f	-0.030324994
152	0xbe47eeda	-0.19524708
153	0x3c17554f	0.009236648
154	0xbcee7e01	-0.029112818
155	0xbe2a83c7	-0.16651832
156	0x3b0c059f	0.0021365655
157	0x3e2427e8	0.16030848
158	0x3a873b9c	0.0010317448
159	0x3dbf75db	0.09348651
160	0xbd069470	-0.032856405
161	0x3cf6c38c	0.03012254
162	0xbedeb74a	-0.43499213
163	0xbea0fd97	-0.31443474
164	0xbe387847	-0.18014632
165	0xbd0d7f3c	-0.03454517
166	0x3e887ff5	0.26660123
167	0x3d591e59	0.053007457
168	0xbe0dda23	-0.13852744
169	0x3d2d5735	0.042319495
170	0x3c368b82	0.01114166
171	0x3b87e64c	0.0041473266
172	0x3d232886	0.039833568
173	0x3c8b424f	0.016999392
174	0x3b7f75fd	0.0038980239
175	0x3d9865c1	0.07441283
176	0x3f02faa9	0.5116373
177	0x3e4f3961	0.20236732
178	0x39a292b1	0.00031008341
179	0xbc3e03e1	-0.0115976045
180	0x3d6787a8	0.056525856
181	0x3c145fd4	0.00905605
182	0xbd419c7b	-0.047268372
183	0x3d1ac28c	0.03778319
184	0x3dc2cdfb	0.09511944
185	0xbc09d8eb	-0.008413534
186	0xbc6da503	-0.014504674
187	0x3f164ab6	0.5870775
188	0xbec8d8e9	-0.3922799
189	0xbc65c05f	-0.014022916
190	0xbec56dd1	-0.38560346
191	0x3e05434e	0.13013956
192	0xbd3a1f1c	-0.045439824
193	0x3e811938	0.25214553
194	0x3d4aae10	0.049482405
195	0xbc525804	-0.012838367
196	0xbd8d46c2	-0.068982616
197	0x3b2fbd20	0.0026815608
198	0xbbe57b15	-0.007003198
199	0xbdc524b0	-0.09626138
200	0x3d2aeb27	0.041728165
201	0x3efa6ab0	0.4890952
202	0xba5b83f5	-0.000837385
203	0xbd38924d	-0.0450614
204	0x3e61406b	0.2199723
205	0x3da4ca0b	0.08046349
206	0x3da3b890	0.07994187
207	0xbcc28c0d	-0.023748422
208	0x3e02baf1	0.12766625
209	0xbd518750	-0.051154435
210	0xbe087d79	-0.13329114
211	0x3b606d96	0.0034245006
212	0x3ca632ce	0.020287897
213	0x3db713c6	0.08939318
214	0x3e26efa1	0.16302349
215	0x3b9941fa	0.0046770545
216	0xbdc432b4	-0.09579983
217	0x3f7d2381	0.988823
218	0xbd8a94d8	-0.06766671
219	0x3d6dfbc7	0.05810144
220	0x38072366	3.2219476e-05
221	0xbd3b6eb2	-0.045759864
222	0x3ce369e1	0.027760448
223	0x3c9b07ed	0.018924678
224	0x3ec0a249	0.37623814
225	0x3c990366	0.018678378
226	0xbb699564	-0.0035642022
227	0x3c9c9097	0.019111915
228	0x3e278480	0.16359138
229	0xbce1a06a	-0.027542312
230	0xbe8e6bf1	-0.27816728
231	0x3c9e8525	0.019350598
232	0xbba2f5b2	-0.004973137
233	0x3d84f8c7	0.06492763
234	0xbecbf821	-0.39837745
235	0xbbaae4c8	-0.005215261
236	0x3e3c9d05	0.18419273
237	0x3ecf59bc	0.4049815
238	0xbee2233c	-0.44167507
239	0xbd255ab9	-0.040369723
240	0xbb097812	-0.0020976108
241	0xbedee7eb	-0.43536314
242	0xbd8dc759	-0.06922788
243	0x3db25f29	0.087095566
244	0x3e9fdbeb	0.31222472
245	0xbe3260e9	-0.17419781
246	0xbd222d74	-0.03959413
247	0x3d3a9c0c	0.045558974
248	0x3e773bd0	0.2414391
249	0x3e9a7a70	0.30171537
250	0xbba8aa7e	-0.0051472774
251	0x3e849bf6	0.2590024
252	0x3c2e488d	0.010637415
253	0x3da5c1f2	0.08093633
254	0x3d9be342	0.07611705
255	0xbb452c3f	-0.0030086187

fc3.bias f4 [6]
0	0x3f83bdf0	1.0292339
1	0x3f8c9bc3	1.0985035
2	0x3f744609	0.95419365
3	0x3f688e60	0.90842247
4	0x3f4f1ab3	0.80900115
5	0x3f68d90d	0.90956193
